…
block_sparse_moe.shared_adapter.3.unit.adapter_w1.weight', 'language_model.model.layers.9.block_sparse_moe.shared_adapter.3.unit.adapter_w2.weight']
You should probably TRAIN this model on a down-stream task to be able to use it for predictions and inference.
Loading checkpoint shards:  95%|█████████▌| 19/20 [00:26<00:01,  1.47s/it]Loading checkpoint shards:  90%|█████████ | 18/20 [00:25<00:03,  1.52s/it] ######################### trying init params ######################### 
language_model.model.layers.0.block_sparse_moe.shared_adapter.0.unit MixtralBlockParallelAdapterExpert(
  (adapter_w1): Linear(in_features=4096, out_features=32, bias=False)
  (adapter_w2): Linear(in_features=32, out_features=4096, bias=False)
  (act_fn): SiLU()
  (dropout): Dropout(p=0.1, inplace=False)
)
Initialized adapter matrices for language_model.model.layers.0.block_sparse_moe.shared_adapter.0.unit
language_model.model.layers.0.block_sparse_moe.shared_adapter.1.unit MixtralBlockParallelAdapterExpert(
  (adapter_w1): Linear(in_features=4096, out_features=32, bias=False)
  (adapter_w2): Linear(in_features=32, out_features=4096, bias=False)
  (act_fn): SiLU()
  (dropout): Dropout(p=0.1, inplace=False)
)
Loading checkpoint shards:  50%|█████     | 10/20 [00:15<00:17,  1.72s/it]Initialized adapter matrices for language_model.model.layers.0.block_sparse_moe.shared_adapter.1.unit
language_model.model.layers.0.block_sparse_moe.shared_adapter.2.unit MixtralBlockParallelAdapterExpert(
  (adapter_w1): Linear(in_features=4096, out_features=32, bias=False)
  (adapter_w2): Linear(in_features=32, out_features=4096, bias=False)
  (act_fn): SiLU()
  (dropout): Dropout(p=0.1, inplace=False)
)
Initialized adapter matrices for language_model.model.layers.0.block_sparse_moe.shared_adapter.2.unit
language_model.model.layers.0.block_sparse_moe.shared_adapter.3.unit MixtralBlockParallelAdapterExpert(
  (adapter_w1): Linear(in_features=4096, out_features=32, bias=False)
  (adapter_w2): Linear(in_features=32, out_features=4096, bias=False)
  (act_fn): SiLU()
  (dropout): Dropout(p=0.1, inplace=False)
)
Initialized adapter matrices for language_model.model.layers.0.block_sparse_moe.shared_adapter.3.unit
language_model.model.layers.1.block_sparse_moe.shared_adapter.0.unit MixtralBlockParallelAdapterExpert(
  (adapter_w1): Linear(in_features=4096, out_features=32, bias=False)
  (adapter_w2): Linear(in_features=32, out_features=4096, bias=False)
  (act_fn): SiLU()
  (dropout): Dropout(p=0.1, inplace=False)
)
Initialized adapter matrices for language_model.model.layers.1.block_sparse_moe.shared_adapter.0.unit
language_model.model.layers.1.block_sparse_moe.shared_adapter.1.unit MixtralBlockParallelAdapterExpert(
  (adapter_w1): Linear(in_features=4096, out_features=32, bias=False)
  (adapter_w2): Linear(in_features=32, out_features=4096, bias=False)
  (act_fn): SiLU()
  (dropout): Dropout(p=0.1, inplace=False)
)
Loading checkpoint shards:  95%|█████████▌| 19/20 [00:26<00:01,  1.72s/it]Initialized adapter matrices for language_model.model.layers.1.block_sparse_moe.shared_adapter.1.unit
language_model.model.layers.1.block_sparse_moe.shared_adapter.2.unit MixtralBlockParallelAdapterExpert(
  (adapter_w1): Linear(in_features=4096, out_features=32, bias=False)
  (adapter_w2): Linear(in_features=32, out_features=4096, bias=False)
  (act_fn): SiLU()
  (dropout): Dropout(p=0.1, inplace=False)
)
Initialized adapter matrices for language_model.model.layers.1.block_sparse_moe.shared_adapter.2.unit
language_model.model.layers.1.block_sparse_moe.shared_adapter.3.unit MixtralBlockParallelAdapterExpert(
  (adapter_w1): Linear(in_features=4096, out_features=32, bias=False)
  (adapter_w2): Linear(in_features=32, out_features=4096, bias=False)
  (act_fn): SiLU()
  (dropout): Dropout(p=0.1, inplace=False)
)
Initialized adapter matrices for language_model.model.layers.1.block_sparse_moe.shared_adapter.3.unit
language_model.model.layers.2.block_sparse_moe.shared_adapter.0.unit MixtralBlockParallelAdapterExpert(
  (adapter_w1): Linear(in_features=4096, out_features=32, bias=False)
  (adapter_w2): Linear(in_features=32, out_features=4096, bias=False)
  (act_fn): SiLU()
  (dropout): Dropout(p=0.1, inplace=False)
)
Initialized adapter matrices for language_model.model.layers.2.block_sparse_moe.shared_adapter.0.unit
language_model.model.layers.2.block_sparse_moe.shared_adapter.1.unit MixtralBlockParallelAdapterExpert(
  (adapter_w1): Linear(in_features=4096, out_features=32, bias=False)
  (adapter_w2): Linear(in_features=32, out_features=4096, bias=False)
  (act_fn): SiLU()
  (dropout): Dropout(p=0.1, inplace=False)
)
Loading checkpoint shards:  45%|████▌     | 9/20 [00:16<00:22,  2.01s/it]Initialized adapter matrices for language_model.model.layers.2.block_sparse_moe.shared_adapter.1.unit
language_model.model.layers.2.block_sparse_moe.shared_adapter.2.unit MixtralBlockParallelAdapterExpert(
  (adapter_w1): Linear(in_features=4096, out_features=32, bias=False)
  (adapter_w2): Linear(in_features=32, out_features=4096, bias=False)
  (act_fn): SiLU()
  (dropout): Dropout(p=0.1, inplace=False)
)
Initialized adapter matrices for language_model.model.layers.2.block_sparse_moe.shared_adapter.2.unit
language_model.model.layers.2.block_sparse_moe.shared_adapter.3.unit MixtralBlockParallelAdapterExpert(
  (adapter_w1): Linear(in_features=4096, out_features=32, bias=False)
  (adapter_w2): Linear(in_features=32, out_features=4096, bias=False)
  (act_fn): SiLU()
  (dropout): Dropout(p=0.1, inplace=False)
)
Initialized adapter matrices for language_model.model.layers.2.block_sparse_moe.shared_adapter.3.unit
language_model.model.layers.3.block_sparse_moe.shared_adapter.0.unit MixtralBlockParallelAdapterExpert(
  (adapter_w1): Linear(in_features=4096, out_features=32, bias=False)
  (adapter_w2): Linear(in_features=32, out_features=4096, bias=False)
  (act_fn): SiLU()
  (dropout): Dropout(p=0.1, inplace=False)
)
Initialized adapter matrices for language_model.model.layers.3.block_sparse_moe.shared_adapter.0.unit
language_model.model.layers.3.block_sparse_moe.shared_adapter.1.unit MixtralBlockParallelAdapterExpert(
  (adapter_w1): Linear(in_features=4096, out_features=32, bias=False)
  (adapter_w2): Linear(in_features=32, out_features=4096, bias=False)
  (act_fn): SiLU()
  (dropout): Dropout(p=0.1, inplace=False)
)
Initialized adapter matrices for language_model.model.layers.3.block_sparse_moe.shared_adapter.1.unit
language_model.model.layers.3.block_sparse_moe.shared_adapter.2.unit MixtralBlockParallelAdapterExpert(
  (adapter_w1): Linear(in_features=4096, out_features=32, bias=False)
  (adapter_w2): Linear(in_features=32, out_features=4096, bias=False)
  (act_fn): SiLU()
  (dropout): Dropout(p=0.1, inplace=False)
)
Initialized adapter matrices for language_model.model.layers.3.block_sparse_moe.shared_adapter.2.unit
language_model.model.layers.3.block_sparse_moe.shared_adapter.3.unit MixtralBlockParallelAdapterExpert(
  (adapter_w1): Linear(in_features=4096, out_features=32, bias=False)
  (adapter_w2): Linear(in_features=32, out_features=4096, bias=False)
  (act_fn): SiLU()
  (dropout): Dropout(p=0.1, inplace=False)
)
Initialized adapter matrices for language_model.model.layers.3.block_sparse_moe.shared_adapter.3.unit
language_model.model.layers.4.block_sparse_moe.shared_adapter.0.unit MixtralBlockParallelAdapterExpert(
  (adapter_w1): Linear(in_features=4096, out_features=32, bias=False)
  (adapter_w2): Linear(in_features=32, out_features=4096, bias=False)
  (act_fn): SiLU()
  (dropout): Dropout(p=0.1, inplace=False)
)
Loading checkpoint shards: 100%|██████████| 20/20 [00:26<00:00,  1.22s/it]Loading checkpoint shards: 100%|██████████| 20/20 [00:26<00:00,  1.34s/it]
Some weights of LlavaForConditionalGeneration were not initialized from the model checkpoint at /home/vault/b207dd/b207dd11/llava-mixtral/
…
'language_model.model.layers.9.block_sparse_moe.shared_adapter.2.unit.adapter_w2.weight', 'language_model.model.layers.9.block_sparse_moe.shared_adapter.3.unit.adapter_w1.weight', 'language_model.model.layers.9.block_sparse_moe.shared_adapter.3.unit.adapter_w2.weight']
You should probably TRAIN this model on a down-stream task to be able to use it for predictions and inference.
Initialized adapter matrices for language_model.model.layers.4.block_sparse_moe.shared_adapter.0.unit
language_model.model.layers.4.block_sparse_moe.shared_adapter.1.unit MixtralBlockParallelAdapterExpert(
  (adapter_w1): Linear(in_features=4096, out_features=32, bias=False)
  (adapter_w2): Linear(in_features=32, out_features=4096, bias=False)
  (act_fn): SiLU()
  (dropout): Dropout(p=0.1, inplace=False)
)
Initialized adapter matrices for language_model.model.layers.4.block_sparse_moe.shared_adapter.1.unit
language_model.model.layers.4.block_sparse_moe.shared_adapter.2.unit MixtralBlockParallelAdapterExpert(
  (adapter_w1): Linear(in_features=4096, out_features=32, bias=False)
  (adapter_w2): Linear(in_features=32, out_features=4096, bias=False)
  (act_fn): SiLU()
  (dropout): Dropout(p=0.1, inplace=False)
)
Initialized adapter matrices for language_model.model.layers.4.block_sparse_moe.shared_adapter.2.unit
language_model.model.layers.4.block_sparse_moe.shared_adapter.3.unit MixtralBlockParallelAdapterExpert(
  (adapter_w1): Linear(in_features=4096, out_features=32, bias=False)
  (adapter_w2): Linear(in_features=32, out_features=4096, bias=False)
  (act_fn): SiLU()
  (dropout): Dropout(p=0.1, inplace=False)
)
Initialized adapter matrices for language_model.model.layers.4.block_sparse_moe.shared_adapter.3.unit
language_model.model.layers.5.block_sparse_moe.shared_adapter.0.unit MixtralBlockParallelAdapterExpert(
  (adapter_w1): Linear(in_features=4096, out_features=32, bias=False)
  (adapter_w2): Linear(in_features=32, out_features=4096, bias=False)
  (act_fn): SiLU()
  (dropout): Dropout(p=0.1, inplace=False)
)
Initialized adapter matrices for language_model.model.layers.5.block_sparse_moe.shared_adapter.0.unit
language_model.model.layers.5.block_sparse_moe.shared_adapter.1.unit MixtralBlockParallelAdapterExpert(
  (adapter_w1): Linear(in_features=4096, out_features=32, bias=False)
  (adapter_w2): Linear(in_features=32, out_features=4096, bias=False)
  (act_fn): SiLU()
  (dropout): Dropout(p=0.1, inplace=False)
)
Initialized adapter matrices for language_model.model.layers.5.block_sparse_moe.shared_adapter.1.unit
language_model.model.layers.5.block_sparse_moe.shared_adapter.2.unit MixtralBlockParallelAdapterExpert(
  (adapter_w1): Linear(in_features=4096, out_features=32, bias=False)
  (adapter_w2): Linear(in_features=32, out_features=4096, bias=False)
  (act_fn): SiLU()
  (dropout): Dropout(p=0.1, inplace=False)
)
Initialized adapter matrices for language_model.model.layers.5.block_sparse_moe.shared_adapter.2.unit
language_model.model.layers.5.block_sparse_moe.shared_adapter.3.unit MixtralBlockParallelAdapterExpert(
  (adapter_w1): Linear(in_features=4096, out_features=32, bias=False)
  (adapter_w2): Linear(in_features=32, out_features=4096, bias=False)
  (act_fn): SiLU()
  (dropout): Dropout(p=0.1, inplace=False)
)
Initialized adapter matrices for language_model.model.layers.5.block_sparse_moe.shared_adapter.3.unit
language_model.model.layers.6.block_sparse_moe.shared_adapter.0.unit MixtralBlockParallelAdapterExpert(
  (adapter_w1): Linear(in_features=4096, out_features=32, bias=False)
  (adapter_w2): Linear(in_features=32, out_features=4096, bias=False)
  (act_fn): SiLU()
  (dropout): Dropout(p=0.1, inplace=False)
)
Initialized adapter matrices for language_model.model.layers.6.block_sparse_moe.shared_adapter.0.unit
language_model.model.layers.6.block_sparse_moe.shared_adapter.1.unit MixtralBlockParallelAdapterExpert(
  (adapter_w1): Linear(in_features=4096, out_features=32, bias=False)
  (adapter_w2): Linear(in_features=32, out_features=4096, bias=False)
  (act_fn): SiLU()
  (dropout): Dropout(p=0.1, inplace=False)
)
Initialized adapter matrices for language_model.model.layers.6.block_sparse_moe.shared_adapter.1.unit
language_model.model.layers.6.block_sparse_moe.shared_adapter.2.unit MixtralBlockParallelAdapterExpert(
  (adapter_w1): Linear(in_features=4096, out_features=32, bias=False)
  (adapter_w2): Linear(in_features=32, out_features=4096, bias=False)
  (act_fn): SiLU()
  (dropout): Dropout(p=0.1, inplace=False)
)
Initialized adapter matrices for language_model.model.layers.6.block_sparse_moe.shared_adapter.2.unit
language_model.model.layers.6.block_sparse_moe.shared_adapter.3.unit MixtralBlockParallelAdapterExpert(
  (adapter_w1): Linear(in_features=4096, out_features=32, bias=False)
  (adapter_w2): Linear(in_features=32, out_features=4096, bias=False)
  (act_fn): SiLU()
  (dropout): Dropout(p=0.1, inplace=False)
)
Initialized adapter matrices for language_model.model.layers.6.block_sparse_moe.shared_adapter.3.unit
language_model.model.layers.7.block_sparse_moe.shared_adapter.0.unit MixtralBlockParallelAdapterExpert(
  (adapter_w1): Linear(in_features=4096, out_features=32, bias=False)
  (adapter_w2): Linear(in_features=32, out_features=4096, bias=False)
  (act_fn): SiLU()
  (dropout): Dropout(p=0.1, inplace=False)
)
Initialized adapter matrices for language_model.model.layers.7.block_sparse_moe.shared_adapter.0.unit
language_model.model.layers.7.block_sparse_moe.shared_adapter.1.unit MixtralBlockParallelAdapterExpert(
  (adapter_w1): Linear(in_features=4096, out_features=32, bias=False)
  (adapter_w2): Linear(in_features=32, out_features=4096, bias=False)
  (act_fn): SiLU()
  (dropout): Dropout(p=0.1, inplace=False)
)
 ######################### trying init params ######################### 
language_model.model.layers.0.block_sparse_moe.shared_adapter.0.unitInitialized adapter matrices for language_model.model.layers.7.block_sparse_moe.shared_adapter.1.unit
language_model.model.layers.7.block_sparse_moe.shared_adapter.2.unit MixtralBlockParallelAdapterExpert(
  (adapter_w1): Linear(in_features=4096, out_features=32, bias=False)
  (adapter_w2): Linear(in_features=32, out_features=4096, bias=False)
  (act_fn): SiLU()
  (dropout): Dropout(p=0.1, inplace=False)
)
 MixtralBlockParallelAdapterExpert(
  (adapter_w1): Linear(in_features=4096, out_features=32, bias=False)
  (adapter_w2): Linear(in_features=32, out_features=4096, bias=False)
  (act_fn): SiLU()
  (dropout): Dropout(p=0.1, inplace=False)
)
Initialized adapter matrices for language_model.model.layers.7.block_sparse_moe.shared_adapter.2.unit
language_model.model.layers.7.block_sparse_moe.shared_adapter.3.unit MixtralBlockParallelAdapterExpert(
  (adapter_w1): Linear(in_features=4096, out_features=32, bias=False)
  (adapter_w2): Linear(in_features=32, out_features=4096, bias=False)
  (act_fn): SiLU()
  (dropout): Dropout(p=0.1, inplace=False)
)
Initialized adapter matrices for language_model.model.layers.7.block_sparse_moe.shared_adapter.3.unit
language_model.model.layers.8.block_sparse_moe.shared_adapter.0.unit MixtralBlockParallelAdapterExpert(
  (adapter_w1): Linear(in_features=4096, out_features=32, bias=False)
  (adapter_w2): Linear(in_features=32, out_features=4096, bias=False)
  (act_fn): SiLU()
  (dropout): Dropout(p=0.1, inplace=False)
)
Initialized adapter matrices for language_model.model.layers.8.block_sparse_moe.shared_adapter.0.unit
language_model.model.layers.8.block_sparse_moe.shared_adapter.1.unit MixtralBlockParallelAdapterExpert(
  (adapter_w1): Linear(in_features=4096, out_features=32, bias=False)
  (adapter_w2): Linear(in_features=32, out_features=4096, bias=False)
  (act_fn): SiLU()
  (dropout): Dropout(p=0.1, inplace=False)
)
Initialized adapter matrices for language_model.model.layers.8.block_sparse_moe.shared_adapter.1.unit
language_model.model.layers.8.block_sparse_moe.shared_adapter.2.unit MixtralBlockParallelAdapterExpert(
  (adapter_w1): Linear(in_features=4096, out_features=32, bias=False)
  (adapter_w2): Linear(in_features=32, out_features=4096, bias=False)
  (act_fn): SiLU()
  (dropout): Dropout(p=0.1, inplace=False)
)
Initialized adapter matrices for language_model.model.layers.8.block_sparse_moe.shared_adapter.2.unit
language_model.model.layers.8.block_sparse_moe.shared_adapter.3.unit MixtralBlockParallelAdapterExpert(
  (adapter_w1): Linear(in_features=4096, out_features=32, bias=False)
  (adapter_w2): Linear(in_features=32, out_features=4096, bias=False)
  (act_fn): SiLU()
  (dropout): Dropout(p=0.1, inplace=False)
)
Initialized adapter matrices for language_model.model.layers.8.block_sparse_moe.shared_adapter.3.unit
Initialized adapter matrices for language_model.model.layers.0.block_sparse_moe.shared_adapter.0.unit
language_model.model.layers.0.block_sparse_moe.shared_adapter.1.unit MixtralBlockParallelAdapterExpert(
  (adapter_w1): Linear(in_features=4096, out_features=32, bias=False)
  (adapter_w2): Linear(in_features=32, out_features=4096, bias=False)
  (act_fn): SiLU()
  (dropout): Dropout(p=0.1, inplace=False)
)
language_model.model.layers.9.block_sparse_moe.shared_adapter.0.unit MixtralBlockParallelAdapterExpert(
  (adapter_w1): Linear(in_features=4096, out_features=32, bias=False)
  (adapter_w2): Linear(in_features=32, out_features=4096, bias=False)
  (act_fn): SiLU()
  (dropout): Dropout(p=0.1, inplace=False)
)
Initialized adapter matrices for language_model.model.layers.9.block_sparse_moe.shared_adapter.0.unit
language_model.model.layers.9.block_sparse_moe.shared_adapter.1.unit MixtralBlockParallelAdapterExpert(
  (adapter_w1): Linear(in_features=4096, out_features=32, bias=False)
  (adapter_w2): Linear(in_features=32, out_features=4096, bias=False)
  (act_fn): SiLU()
  (dropout): Dropout(p=0.1, inplace=False)
)
Initialized adapter matrices for language_model.model.layers.9.block_sparse_moe.shared_adapter.1.unit
language_model.model.layers.9.block_sparse_moe.shared_adapter.2.unit MixtralBlockParallelAdapterExpert(
  (adapter_w1): Linear(in_features=4096, out_features=32, bias=False)
  (adapter_w2): Linear(in_features=32, out_features=4096, bias=False)
  (act_fn): SiLU()
  (dropout): Dropout(p=0.1, inplace=False)
)
Initialized adapter matrices for language_model.model.layers.0.block_sparse_moe.shared_adapter.1.unit
language_model.model.layers.0.block_sparse_moe.shared_adapter.2.unit MixtralBlockParallelAdapterExpert(
  (adapter_w1): Linear(in_features=4096, out_features=32, bias=False)
  (adapter_w2): Linear(in_features=32, out_features=4096, bias=False)
  (act_fn): SiLU()
  (dropout): Dropout(p=0.1, inplace=False)
)
Initialized adapter matrices for language_model.model.layers.9.block_sparse_moe.shared_adapter.2.unit
language_model.model.layers.9.block_sparse_moe.shared_adapter.3.unit MixtralBlockParallelAdapterExpert(
  (adapter_w1): Linear(in_features=4096, out_features=32, bias=False)
  (adapter_w2): Linear(in_features=32, out_features=4096, bias=False)
  (act_fn): SiLU()
  (dropout): Dropout(p=0.1, inplace=False)
)
Initialized adapter matrices for language_model.model.layers.9.block_sparse_moe.shared_adapter.3.unit
language_model.model.layers.10.block_sparse_moe.shared_adapter.0.unit MixtralBlockParallelAdapterExpert(
  (adapter_w1): Linear(in_features=4096, out_features=32, bias=False)
  (adapter_w2): Linear(in_features=32, out_features=4096, bias=False)
  (act_fn): SiLU()
  (dropout): Dropout(p=0.1, inplace=False)
)
Initialized adapter matrices for language_model.model.layers.0.block_sparse_moe.shared_adapter.2.unit
language_model.model.layers.0.block_sparse_moe.shared_adapter.3.unit MixtralBlockParallelAdapterExpert(
  (adapter_w1): Linear(in_features=4096, out_features=32, bias=False)
  (adapter_w2): Linear(in_features=32, out_features=4096, bias=False)
  (act_fn): SiLU()
  (dropout): Dropout(p=0.1, inplace=False)
)
Initialized adapter matrices for language_model.model.layers.10.block_sparse_moe.shared_adapter.0.unit
language_model.model.layers.10.block_sparse_moe.shared_adapter.1.unit MixtralBlockParallelAdapterExpert(
  (adapter_w1): Linear(in_features=4096, out_features=32, bias=False)
  (adapter_w2): Linear(in_features=32, out_features=4096, bias=False)
  (act_fn): SiLU()
  (dropout): Dropout(p=0.1, inplace=False)
)
Initialized adapter matrices for language_model.model.layers.0.block_sparse_moe.shared_adapter.3.unit
language_model.model.layers.1.block_sparse_moe.shared_adapter.0.unit MixtralBlockParallelAdapterExpert(
  (adapter_w1): Linear(in_features=4096, out_features=32, bias=False)
  (adapter_w2): Linear(in_features=32, out_features=4096, bias=False)
  (act_fn): SiLU()
  (dropout): Dropout(p=0.1, inplace=False)
)
Initialized adapter matrices for language_model.model.layers.10.block_sparse_moe.shared_adapter.1.unit
language_model.model.layers.10.block_sparse_moe.shared_adapter.2.unit MixtralBlockParallelAdapterExpert(
  (adapter_w1): Linear(in_features=4096, out_features=32, bias=False)
  (adapter_w2): Linear(in_features=32, out_features=4096, bias=False)
  (act_fn): SiLU()
  (dropout): Dropout(p=0.1, inplace=False)
)
Initialized adapter matrices for language_model.model.layers.10.block_sparse_moe.shared_adapter.2.unit
language_model.model.layers.10.block_sparse_moe.shared_adapter.3.unit MixtralBlockParallelAdapterExpert(
  (adapter_w1): Linear(in_features=4096, out_features=32, bias=False)
  (adapter_w2): Linear(in_features=32, out_features=4096, bias=False)
  (act_fn): SiLU()
  (dropout): Dropout(p=0.1, inplace=False)
)
Initialized adapter matrices for language_model.model.layers.1.block_sparse_moe.shared_adapter.0.unit
language_model.model.layers.1.block_sparse_moe.shared_adapter.1.unit MixtralBlockParallelAdapterExpert(
  (adapter_w1): Linear(in_features=4096, out_features=32, bias=False)
  (adapter_w2): Linear(in_features=32, out_features=4096, bias=False)
  (act_fn): SiLU()
  (dropout): Dropout(p=0.1, inplace=False)
)
Initialized adapter matrices for language_model.model.layers.10.block_sparse_moe.shared_adapter.3.unit
language_model.model.layers.11.block_sparse_moe.shared_adapter.0.unit MixtralBlockParallelAdapterExpert(
  (adapter_w1): Linear(in_features=4096, out_features=32, bias=False)
  (adapter_w2): Linear(in_features=32, out_features=4096, bias=False)
  (act_fn): SiLU()
  (dropout): Dropout(p=0.1, inplace=False)
)
Initialized adapter matrices for language_model.model.layers.1.block_sparse_moe.shared_adapter.1.unit
language_model.model.layers.1.block_sparse_moe.shared_adapter.2.unit MixtralBlockParallelAdapterExpert(
  (adapter_w1): Linear(in_features=4096, out_features=32, bias=False)
  (adapter_w2): Linear(in_features=32, out_features=4096, bias=False)
  (act_fn): SiLU()
  (dropout): Dropout(p=0.1, inplace=False)
)
Initialized adapter matrices for language_model.model.layers.11.block_sparse_moe.shared_adapter.0.unit
language_model.model.layers.11.block_sparse_moe.shared_adapter.1.unit MixtralBlockParallelAdapterExpert(
  (adapter_w1): Linear(in_features=4096, out_features=32, bias=False)
  (adapter_w2): Linear(in_features=32, out_features=4096, bias=False)
  (act_fn): SiLU()
  (dropout): Dropout(p=0.1, inplace=False)
)
Initialized adapter matrices for language_model.model.layers.1.block_sparse_moe.shared_adapter.2.unit
language_model.model.layers.1.block_sparse_moe.shared_adapter.3.unit MixtralBlockParallelAdapterExpert(
  (adapter_w1): Linear(in_features=4096, out_features=32, bias=False)
  (adapter_w2): Linear(in_features=32, out_features=4096, bias=False)
  (act_fn): SiLU()
  (dropout): Dropout(p=0.1, inplace=False)
)
Initialized adapter matrices for language_model.model.layers.11.block_sparse_moe.shared_adapter.1.unit
language_model.model.layers.11.block_sparse_moe.shared_adapter.2.unit MixtralBlockParallelAdapterExpert(
  (adapter_w1): Linear(in_features=4096, out_features=32, bias=False)
  (adapter_w2): Linear(in_features=32, out_features=4096, bias=False)
  (act_fn): SiLU()
  (dropout): Dropout(p=0.1, inplace=False)
)
Initialized adapter matrices for language_model.model.layers.11.block_sparse_moe.shared_adapter.2.unit
language_model.model.layers.11.block_sparse_moe.shared_adapter.3.unit MixtralBlockParallelAdapterExpert(
  (adapter_w1): Linear(in_features=4096, out_features=32, bias=False)
  (adapter_w2): Linear(in_features=32, out_features=4096, bias=False)
  (act_fn): SiLU()
  (dropout): Dropout(p=0.1, inplace=False)
)
Initialized adapter matrices for language_model.model.layers.1.block_sparse_moe.shared_adapter.3.unit
language_model.model.layers.2.block_sparse_moe.shared_adapter.0.unit MixtralBlockParallelAdapterExpert(
  (adapter_w1): Linear(in_features=4096, out_features=32, bias=False)
  (adapter_w2): Linear(in_features=32, out_features=4096, bias=False)
  (act_fn): SiLU()
  (dropout): Dropout(p=0.1, inplace=False)
)
Initialized adapter matrices for language_model.model.layers.11.block_sparse_moe.shared_adapter.3.unit
language_model.model.layers.12.block_sparse_moe.shared_adapter.0.unit MixtralBlockParallelAdapterExpert(
  (adapter_w1): Linear(in_features=4096, out_features=32, bias=False)
  (adapter_w2): Linear(in_features=32, out_features=4096, bias=False)
  (act_fn): SiLU()
  (dropout): Dropout(p=0.1, inplace=False)
)
Initialized adapter matrices for language_model.model.layers.2.block_sparse_moe.shared_adapter.0.unit
language_model.model.layers.2.block_sparse_moe.shared_adapter.1.unit MixtralBlockParallelAdapterExpert(
  (adapter_w1): Linear(in_features=4096, out_features=32, bias=False)
  (adapter_w2): Linear(in_features=32, out_features=4096, bias=False)
  (act_fn): SiLU()
  (dropout): Dropout(p=0.1, inplace=False)
)
Initialized adapter matrices for language_model.model.layers.12.block_sparse_moe.shared_adapter.0.unit
language_model.model.layers.12.block_sparse_moe.shared_adapter.1.unit MixtralBlockParallelAdapterExpert(
  (adapter_w1): Linear(in_features=4096, out_features=32, bias=False)
  (adapter_w2): Linear(in_features=32, out_features=4096, bias=False)
  (act_fn): SiLU()
  (dropout): Dropout(p=0.1, inplace=False)
)
Initialized adapter matrices for language_model.model.layers.2.block_sparse_moe.shared_adapter.1.unit
language_model.model.layers.2.block_sparse_moe.shared_adapter.2.unit MixtralBlockParallelAdapterExpert(
  (adapter_w1): Linear(in_features=4096, out_features=32, bias=False)
  (adapter_w2): Linear(in_features=32, out_features=4096, bias=False)
  (act_fn): SiLU()
  (dropout): Dropout(p=0.1, inplace=False)
)
Initialized adapter matrices for language_model.model.layers.12.block_sparse_moe.shared_adapter.1.unit
language_model.model.layers.12.block_sparse_moe.shared_adapter.2.unit MixtralBlockParallelAdapterExpert(
  (adapter_w1): Linear(in_features=4096, out_features=32, bias=False)
  (adapter_w2): Linear(in_features=32, out_features=4096, bias=False)
  (act_fn): SiLU()
  (dropout): Dropout(p=0.1, inplace=False)
)
Initialized adapter matrices for language_model.model.layers.12.block_sparse_moe.shared_adapter.2.unit
language_model.model.layers.12.block_sparse_moe.shared_adapter.3.unit MixtralBlockParallelAdapterExpert(
  (adapter_w1): Linear(in_features=4096, out_features=32, bias=False)
  (adapter_w2): Linear(in_features=32, out_features=4096, bias=False)
  (act_fn): SiLU()
  (dropout): Dropout(p=0.1, inplace=False)
)
Initialized adapter matrices for language_model.model.layers.2.block_sparse_moe.shared_adapter.2.unit
language_model.model.layers.2.block_sparse_moe.shared_adapter.3.unit MixtralBlockParallelAdapterExpert(
  (adapter_w1): Linear(in_features=4096, out_features=32, bias=False)
  (adapter_w2): Linear(in_features=32, out_features=4096, bias=False)
  (act_fn): SiLU()
  (dropout): Dropout(p=0.1, inplace=False)
)
Initialized adapter matrices for language_model.model.layers.12.block_sparse_moe.shared_adapter.3.unit
language_model.model.layers.13.block_sparse_moe.shared_adapter.0.unit MixtralBlockParallelAdapterExpert(
  (adapter_w1): Linear(in_features=4096, out_features=32, bias=False)
  (adapter_w2): Linear(in_features=32, out_features=4096, bias=False)
  (act_fn): SiLU()
  (dropout): Dropout(p=0.1, inplace=False)
)
Initialized adapter matrices for language_model.model.layers.2.block_sparse_moe.shared_adapter.3.unit
language_model.model.layers.3.block_sparse_moe.shared_adapter.0.unit MixtralBlockParallelAdapterExpert(
  (adapter_w1): Linear(in_features=4096, out_features=32, bias=False)
  (adapter_w2): Linear(in_features=32, out_features=4096, bias=False)
  (act_fn): SiLU()
  (dropout): Dropout(p=0.1, inplace=False)
)
Initialized adapter matrices for language_model.model.layers.13.block_sparse_moe.shared_adapter.0.unit
language_model.model.layers.13.block_sparse_moe.shared_adapter.1.unit MixtralBlockParallelAdapterExpert(
  (adapter_w1): Linear(in_features=4096, out_features=32, bias=False)
  (adapter_w2): Linear(in_features=32, out_features=4096, bias=False)
  (act_fn): SiLU()
  (dropout): Dropout(p=0.1, inplace=False)
)
Initialized adapter matrices for language_model.model.layers.3.block_sparse_moe.shared_adapter.0.unit
language_model.model.layers.3.block_sparse_moe.shared_adapter.1.unit MixtralBlockParallelAdapterExpert(
  (adapter_w1): Linear(in_features=4096, out_features=32, bias=False)
  (adapter_w2): Linear(in_features=32, out_features=4096, bias=False)
  (act_fn): SiLU()
  (dropout): Dropout(p=0.1, inplace=False)
)
Initialized adapter matrices for language_model.model.layers.13.block_sparse_moe.shared_adapter.1.unit
language_model.model.layers.13.block_sparse_moe.shared_adapter.2.unit MixtralBlockParallelAdapterExpert(
  (adapter_w1): Linear(in_features=4096, out_features=32, bias=False)
  (adapter_w2): Linear(in_features=32, out_features=4096, bias=False)
  (act_fn): SiLU()
  (dropout): Dropout(p=0.1, inplace=False)
)
Initialized adapter matrices for language_model.model.layers.3.block_sparse_moe.shared_adapter.1.unit
language_model.model.layers.3.block_sparse_moe.shared_adapter.2.unit MixtralBlockParallelAdapterExpert(
  (adapter_w1): Linear(in_features=4096, out_features=32, bias=False)
  (adapter_w2): Linear(in_features=32, out_features=4096, bias=False)
  (act_fn): SiLU()
  (dropout): Dropout(p=0.1, inplace=False)
)
Initialized adapter matrices for language_model.model.layers.13.block_sparse_moe.shared_adapter.2.unit
language_model.model.layers.13.block_sparse_moe.shared_adapter.3.unit MixtralBlockParallelAdapterExpert(
  (adapter_w1): Linear(in_features=4096, out_features=32, bias=False)
  (adapter_w2): Linear(in_features=32, out_features=4096, bias=False)
  (act_fn): SiLU()
  (dropout): Dropout(p=0.1, inplace=False)
)
Initialized adapter matrices for language_model.model.layers.3.block_sparse_moe.shared_adapter.2.unit
language_model.model.layers.3.block_sparse_moe.shared_adapter.3.unit MixtralBlockParallelAdapterExpert(
  (adapter_w1): Linear(in_features=4096, out_features=32, bias=False)
  (adapter_w2): Linear(in_features=32, out_features=4096, bias=False)
  (act_fn): SiLU()
  (dropout): Dropout(p=0.1, inplace=False)
)
Initialized adapter matrices for language_model.model.layers.13.block_sparse_moe.shared_adapter.3.unit
language_model.model.layers.14.block_sparse_moe.shared_adapter.0.unit MixtralBlockParallelAdapterExpert(
  (adapter_w1): Linear(in_features=4096, out_features=32, bias=False)
  (adapter_w2): Linear(in_features=32, out_features=4096, bias=False)
  (act_fn): SiLU()
  (dropout): Dropout(p=0.1, inplace=False)
)
Initialized adapter matrices for language_model.model.layers.3.block_sparse_moe.shared_adapter.3.unit
Initialized adapter matrices for language_model.model.layers.14.block_sparse_moe.shared_adapter.0.unit
language_model.model.layers.14.block_sparse_moe.shared_adapter.1.unit language_model.model.layers.4.block_sparse_moe.shared_adapter.0.unit MixtralBlockParallelAdapterExpert(
  (adapter_w1): Linear(in_features=4096, out_features=32, bias=False)
  (adapter_w2): Linear(in_features=32, out_features=4096, bias=False)
  (act_fn): SiLU()
  (dropout): Dropout(p=0.1, inplace=False)
)MixtralBlockParallelAdapterExpert(
  (adapter_w1): Linear(in_features=4096, out_features=32, bias=False)
  (adapter_w2): Linear(in_features=32, out_features=4096, bias=False)
  (act_fn): SiLU()
  (dropout): Dropout(p=0.1, inplace=False)
)

Initialized adapter matrices for language_model.model.layers.14.block_sparse_moe.shared_adapter.1.unit
language_model.model.layers.14.block_sparse_moe.shared_adapter.2.unit MixtralBlockParallelAdapterExpert(
  (adapter_w1): Linear(in_features=4096, out_features=32, bias=False)
  (adapter_w2): Linear(in_features=32, out_features=4096, bias=False)
  (act_fn): SiLU()
  (dropout): Dropout(p=0.1, inplace=False)
)
Initialized adapter matrices for language_model.model.layers.4.block_sparse_moe.shared_adapter.0.unit
language_model.model.layers.4.block_sparse_moe.shared_adapter.1.unit MixtralBlockParallelAdapterExpert(
  (adapter_w1): Linear(in_features=4096, out_features=32, bias=False)
  (adapter_w2): Linear(in_features=32, out_features=4096, bias=False)
  (act_fn): SiLU()
  (dropout): Dropout(p=0.1, inplace=False)
)
Initialized adapter matrices for language_model.model.layers.14.block_sparse_moe.shared_adapter.2.unit
language_model.model.layers.14.block_sparse_moe.shared_adapter.3.unit MixtralBlockParallelAdapterExpert(
  (adapter_w1): Linear(in_features=4096, out_features=32, bias=False)
  (adapter_w2): Linear(in_features=32, out_features=4096, bias=False)
  (act_fn): SiLU()
  (dropout): Dropout(p=0.1, inplace=False)
)
Initialized adapter matrices for language_model.model.layers.14.block_sparse_moe.shared_adapter.3.unit
language_model.model.layers.15.block_sparse_moe.shared_adapter.0.unit MixtralBlockParallelAdapterExpert(
  (adapter_w1): Linear(in_features=4096, out_features=32, bias=False)
  (adapter_w2): Linear(in_features=32, out_features=4096, bias=False)
  (act_fn): SiLU()
  (dropout): Dropout(p=0.1, inplace=False)
)
Initialized adapter matrices for language_model.model.layers.4.block_sparse_moe.shared_adapter.1.unit
language_model.model.layers.4.block_sparse_moe.shared_adapter.2.unit MixtralBlockParallelAdapterExpert(
  (adapter_w1): Linear(in_features=4096, out_features=32, bias=False)
  (adapter_w2): Linear(in_features=32, out_features=4096, bias=False)
  (act_fn): SiLU()
  (dropout): Dropout(p=0.1, inplace=False)
)
Initialized adapter matrices for language_model.model.layers.15.block_sparse_moe.shared_adapter.0.unit
language_model.model.layers.15.block_sparse_moe.shared_adapter.1.unitInitialized adapter matrices for language_model.model.layers.4.block_sparse_moe.shared_adapter.2.unit
 language_model.model.layers.4.block_sparse_moe.shared_adapter.3.unit MixtralBlockParallelAdapterExpert(
  (adapter_w1): Linear(in_features=4096, out_features=32, bias=False)
  (adapter_w2): Linear(in_features=32, out_features=4096, bias=False)
  (act_fn): SiLU()
  (dropout): Dropout(p=0.1, inplace=False)
)MixtralBlockParallelAdapterExpert(
  (adapter_w1): Linear(in_features=4096, out_features=32, bias=False)
  (adapter_w2): Linear(in_features=32, out_features=4096, bias=False)
  (act_fn): SiLU()
  (dropout): Dropout(p=0.1, inplace=False)
)

Initialized adapter matrices for language_model.model.layers.4.block_sparse_moe.shared_adapter.3.unit
language_model.model.layers.5.block_sparse_moe.shared_adapter.0.unit MixtralBlockParallelAdapterExpert(
  (adapter_w1): Linear(in_features=4096, out_features=32, bias=False)
  (adapter_w2): Linear(in_features=32, out_features=4096, bias=False)
  (act_fn): SiLU()
  (dropout): Dropout(p=0.1, inplace=False)
)
Initialized adapter matrices for language_model.model.layers.15.block_sparse_moe.shared_adapter.1.unit
language_model.model.layers.15.block_sparse_moe.shared_adapter.2.unit MixtralBlockParallelAdapterExpert(
  (adapter_w1): Linear(in_features=4096, out_features=32, bias=False)
  (adapter_w2): Linear(in_features=32, out_features=4096, bias=False)
  (act_fn): SiLU()
  (dropout): Dropout(p=0.1, inplace=False)
)
Initialized adapter matrices for language_model.model.layers.5.block_sparse_moe.shared_adapter.0.unit
language_model.model.layers.5.block_sparse_moe.shared_adapter.1.unit MixtralBlockParallelAdapterExpert(
  (adapter_w1): Linear(in_features=4096, out_features=32, bias=False)
  (adapter_w2): Linear(in_features=32, out_features=4096, bias=False)
  (act_fn): SiLU()
  (dropout): Dropout(p=0.1, inplace=False)
)
Initialized adapter matrices for language_model.model.layers.15.block_sparse_moe.shared_adapter.2.unit
language_model.model.layers.15.block_sparse_moe.shared_adapter.3.unit MixtralBlockParallelAdapterExpert(
  (adapter_w1): Linear(in_features=4096, out_features=32, bias=False)
  (adapter_w2): Linear(in_features=32, out_features=4096, bias=False)
  (act_fn): SiLU()
  (dropout): Dropout(p=0.1, inplace=False)
)
Initialized adapter matrices for language_model.model.layers.5.block_sparse_moe.shared_adapter.1.unit
language_model.model.layers.5.block_sparse_moe.shared_adapter.2.unit MixtralBlockParallelAdapterExpert(
  (adapter_w1): Linear(in_features=4096, out_features=32, bias=False)
  (adapter_w2): Linear(in_features=32, out_features=4096, bias=False)
  (act_fn): SiLU()
  (dropout): Dropout(p=0.1, inplace=False)
)
Initialized adapter matrices for language_model.model.layers.15.block_sparse_moe.shared_adapter.3.unit
language_model.model.layers.16.block_sparse_moe.shared_adapter.0.unit MixtralBlockParallelAdapterExpert(
  (adapter_w1): Linear(in_features=4096, out_features=32, bias=False)
  (adapter_w2): Linear(in_features=32, out_features=4096, bias=False)
  (act_fn): SiLU()
  (dropout): Dropout(p=0.1, inplace=False)
)
Initialized adapter matrices for language_model.model.layers.5.block_sparse_moe.shared_adapter.2.unit
language_model.model.layers.5.block_sparse_moe.shared_adapter.3.unit MixtralBlockParallelAdapterExpert(
  (adapter_w1): Linear(in_features=4096, out_features=32, bias=False)
  (adapter_w2): Linear(in_features=32, out_features=4096, bias=False)
  (act_fn): SiLU()
  (dropout): Dropout(p=0.1, inplace=False)
)
Initialized adapter matrices for language_model.model.layers.16.block_sparse_moe.shared_adapter.0.unit
language_model.model.layers.16.block_sparse_moe.shared_adapter.1.unitInitialized adapter matrices for language_model.model.layers.5.block_sparse_moe.shared_adapter.3.unit
 MixtralBlockParallelAdapterExpert(
  (adapter_w1): Linear(in_features=4096, out_features=32, bias=False)
  (adapter_w2): Linear(in_features=32, out_features=4096, bias=False)
  (act_fn): SiLU()
  (dropout): Dropout(p=0.1, inplace=False)
)
language_model.model.layers.6.block_sparse_moe.shared_adapter.0.unit MixtralBlockParallelAdapterExpert(
  (adapter_w1): Linear(in_features=4096, out_features=32, bias=False)
  (adapter_w2): Linear(in_features=32, out_features=4096, bias=False)
  (act_fn): SiLU()
  (dropout): Dropout(p=0.1, inplace=False)
)
Initialized adapter matrices for language_model.model.layers.6.block_sparse_moe.shared_adapter.0.unitInitialized adapter matrices for language_model.model.layers.16.block_sparse_moe.shared_adapter.1.unit
language_model.model.layers.6.block_sparse_moe.shared_adapter.1.unit
language_model.model.layers.16.block_sparse_moe.shared_adapter.2.unit MixtralBlockParallelAdapterExpert(
  (adapter_w1): Linear(in_features=4096, out_features=32, bias=False)
  (adapter_w2): Linear(in_features=32, out_features=4096, bias=False)
  (act_fn): SiLU()
  (dropout): Dropout(p=0.1, inplace=False)
) MixtralBlockParallelAdapterExpert(
  (adapter_w1): Linear(in_features=4096, out_features=32, bias=False)
  (adapter_w2): Linear(in_features=32, out_features=4096, bias=False)
  (act_fn): SiLU()
  (dropout): Dropout(p=0.1, inplace=False)
)

Initialized adapter matrices for language_model.model.layers.16.block_sparse_moe.shared_adapter.2.unit
language_model.model.layers.16.block_sparse_moe.shared_adapter.3.unitInitialized adapter matrices for language_model.model.layers.6.block_sparse_moe.shared_adapter.1.unit MixtralBlockParallelAdapterExpert(
  (adapter_w1): Linear(in_features=4096, out_features=32, bias=False)
  (adapter_w2): Linear(in_features=32, out_features=4096, bias=False)
  (act_fn): SiLU()
  (dropout): Dropout(p=0.1, inplace=False)
)

language_model.model.layers.6.block_sparse_moe.shared_adapter.2.unit MixtralBlockParallelAdapterExpert(
  (adapter_w1): Linear(in_features=4096, out_features=32, bias=False)
  (adapter_w2): Linear(in_features=32, out_features=4096, bias=False)
  (act_fn): SiLU()
  (dropout): Dropout(p=0.1, inplace=False)
)
Initialized adapter matrices for language_model.model.layers.16.block_sparse_moe.shared_adapter.3.unit
language_model.model.layers.17.block_sparse_moe.shared_adapter.0.unit MixtralBlockParallelAdapterExpert(
  (adapter_w1): Linear(in_features=4096, out_features=32, bias=False)
  (adapter_w2): Linear(in_features=32, out_features=4096, bias=False)
  (act_fn): SiLU()
  (dropout): Dropout(p=0.1, inplace=False)
)
Initialized adapter matrices for language_model.model.layers.6.block_sparse_moe.shared_adapter.2.unit
language_model.model.layers.6.block_sparse_moe.shared_adapter.3.unit MixtralBlockParallelAdapterExpert(
  (adapter_w1): Linear(in_features=4096, out_features=32, bias=False)
  (adapter_w2): Linear(in_features=32, out_features=4096, bias=False)
  (act_fn): SiLU()
  (dropout): Dropout(p=0.1, inplace=False)
)
Initialized adapter matrices for language_model.model.layers.17.block_sparse_moe.shared_adapter.0.unit
language_model.model.layers.17.block_sparse_moe.shared_adapter.1.unit MixtralBlockParallelAdapterExpert(
  (adapter_w1): Linear(in_features=4096, out_features=32, bias=False)
  (adapter_w2): Linear(in_features=32, out_features=4096, bias=False)
  (act_fn): SiLU()
  (dropout): Dropout(p=0.1, inplace=False)
)
Initialized adapter matrices for language_model.model.layers.6.block_sparse_moe.shared_adapter.3.unit
language_model.model.layers.7.block_sparse_moe.shared_adapter.0.unit MixtralBlockParallelAdapterExpert(
  (adapter_w1): Linear(in_features=4096, out_features=32, bias=False)
  (adapter_w2): Linear(in_features=32, out_features=4096, bias=False)
  (act_fn): SiLU()
  (dropout): Dropout(p=0.1, inplace=False)
)
Initialized adapter matrices for language_model.model.layers.17.block_sparse_moe.shared_adapter.1.unit
language_model.model.layers.17.block_sparse_moe.shared_adapter.2.unit MixtralBlockParallelAdapterExpert(
  (adapter_w1): Linear(in_features=4096, out_features=32, bias=False)
  (adapter_w2): Linear(in_features=32, out_features=4096, bias=False)
  (act_fn): SiLU()
  (dropout): Dropout(p=0.1, inplace=False)
)
Initialized adapter matrices for language_model.model.layers.7.block_sparse_moe.shared_adapter.0.unit
language_model.model.layers.7.block_sparse_moe.shared_adapter.1.unit MixtralBlockParallelAdapterExpert(
  (adapter_w1): Linear(in_features=4096, out_features=32, bias=False)
  (adapter_w2): Linear(in_features=32, out_features=4096, bias=False)
  (act_fn): SiLU()
  (dropout): Dropout(p=0.1, inplace=False)
)
Initialized adapter matrices for language_model.model.layers.17.block_sparse_moe.shared_adapter.2.unit
language_model.model.layers.17.block_sparse_moe.shared_adapter.3.unit MixtralBlockParallelAdapterExpert(
  (adapter_w1): Linear(in_features=4096, out_features=32, bias=False)
  (adapter_w2): Linear(in_features=32, out_features=4096, bias=False)
  (act_fn): SiLU()
  (dropout): Dropout(p=0.1, inplace=False)
)
Initialized adapter matrices for language_model.model.layers.7.block_sparse_moe.shared_adapter.1.unit
language_model.model.layers.7.block_sparse_moe.shared_adapter.2.unit MixtralBlockParallelAdapterExpert(
  (adapter_w1): Linear(in_features=4096, out_features=32, bias=False)
  (adapter_w2): Linear(in_features=32, out_features=4096, bias=False)
  (act_fn): SiLU()
  (dropout): Dropout(p=0.1, inplace=False)
)
Initialized adapter matrices for language_model.model.layers.17.block_sparse_moe.shared_adapter.3.unit
language_model.model.layers.18.block_sparse_moe.shared_adapter.0.unit MixtralBlockParallelAdapterExpert(
  (adapter_w1): Linear(in_features=4096, out_features=32, bias=False)
  (adapter_w2): Linear(in_features=32, out_features=4096, bias=False)
  (act_fn): SiLU()
  (dropout): Dropout(p=0.1, inplace=False)
)
Initialized adapter matrices for language_model.model.layers.7.block_sparse_moe.shared_adapter.2.unit
language_model.model.layers.7.block_sparse_moe.shared_adapter.3.unit MixtralBlockParallelAdapterExpert(
  (adapter_w1): Linear(in_features=4096, out_features=32, bias=False)
  (adapter_w2): Linear(in_features=32, out_features=4096, bias=False)
  (act_fn): SiLU()
  (dropout): Dropout(p=0.1, inplace=False)
)
Initialized adapter matrices for language_model.model.layers.18.block_sparse_moe.shared_adapter.0.unit
language_model.model.layers.18.block_sparse_moe.shared_adapter.1.unit MixtralBlockParallelAdapterExpert(
  (adapter_w1): Linear(in_features=4096, out_features=32, bias=False)
  (adapter_w2): Linear(in_features=32, out_features=4096, bias=False)
  (act_fn): SiLU()
  (dropout): Dropout(p=0.1, inplace=False)
)
Initialized adapter matrices for language_model.model.layers.7.block_sparse_moe.shared_adapter.3.unit
language_model.model.layers.8.block_sparse_moe.shared_adapter.0.unit MixtralBlockParallelAdapterExpert(
  (adapter_w1): Linear(in_features=4096, out_features=32, bias=False)
  (adapter_w2): Linear(in_features=32, out_features=4096, bias=False)
  (act_fn): SiLU()
  (dropout): Dropout(p=0.1, inplace=False)
)
Initialized adapter matrices for language_model.model.layers.18.block_sparse_moe.shared_adapter.1.unit
language_model.model.layers.18.block_sparse_moe.shared_adapter.2.unit MixtralBlockParallelAdapterExpert(
  (adapter_w1): Linear(in_features=4096, out_features=32, bias=False)
  (adapter_w2): Linear(in_features=32, out_features=4096, bias=False)
  (act_fn): SiLU()
  (dropout): Dropout(p=0.1, inplace=False)
)
Initialized adapter matrices for language_model.model.layers.18.block_sparse_moe.shared_adapter.2.unit
language_model.model.layers.18.block_sparse_moe.shared_adapter.3.unitInitialized adapter matrices for language_model.model.layers.8.block_sparse_moe.shared_adapter.0.unit MixtralBlockParallelAdapterExpert(
  (adapter_w1): Linear(in_features=4096, out_features=32, bias=False)
  (adapter_w2): Linear(in_features=32, out_features=4096, bias=False)
  (act_fn): SiLU()
  (dropout): Dropout(p=0.1, inplace=False)
)

language_model.model.layers.8.block_sparse_moe.shared_adapter.1.unit MixtralBlockParallelAdapterExpert(
  (adapter_w1): Linear(in_features=4096, out_features=32, bias=False)
  (adapter_w2): Linear(in_features=32, out_features=4096, bias=False)
  (act_fn): SiLU()
  (dropout): Dropout(p=0.1, inplace=False)
)
Loading checkpoint shards: 100%|██████████| 20/20 [00:28<00:00,  1.62s/it]Loading checkpoint shards: 100%|██████████| 20/20 [00:28<00:00,  1.41s/it]
Some weights of LlavaForConditionalGeneration were not initialized from the model checkpoint at /home/vault/b207dd/b207dd11/llava-mixtral/
…
'language_model.model.layers.9.block_sparse_moe.shared_adapter.2.unit.adapter_w2.weight', 'language_model.model.layers.9.block_sparse_moe.shared_adapter.3.unit.adapter_w1.weight', 'language_model.model.layers.9.block_sparse_moe.shared_adapter.3.unit.adapter_w2.weight']
You should probably TRAIN this model on a down-stream task to be able to use it for predictions and inference.
Initialized adapter matrices for language_model.model.layers.8.block_sparse_moe.shared_adapter.1.unit
language_model.model.layers.8.block_sparse_moe.shared_adapter.2.unit MixtralBlockParallelAdapterExpert(
  (adapter_w1): Linear(in_features=4096, out_features=32, bias=False)
  (adapter_w2): Linear(in_features=32, out_features=4096, bias=False)
  (act_fn): SiLU()
  (dropout): Dropout(p=0.1, inplace=False)
)
Initialized adapter matrices for language_model.model.layers.18.block_sparse_moe.shared_adapter.3.unit
language_model.model.layers.19.block_sparse_moe.shared_adapter.0.unit MixtralBlockParallelAdapterExpert(
  (adapter_w1): Linear(in_features=4096, out_features=32, bias=False)
  (adapter_w2): Linear(in_features=32, out_features=4096, bias=False)
  (act_fn): SiLU()
  (dropout): Dropout(p=0.1, inplace=False)
)
Initialized adapter matrices for language_model.model.layers.8.block_sparse_moe.shared_adapter.2.unit
language_model.model.layers.8.block_sparse_moe.shared_adapter.3.unit MixtralBlockParallelAdapterExpert(
  (adapter_w1): Linear(in_features=4096, out_features=32, bias=False)
  (adapter_w2): Linear(in_features=32, out_features=4096, bias=False)
  (act_fn): SiLU()
  (dropout): Dropout(p=0.1, inplace=False)
)
Initialized adapter matrices for language_model.model.layers.19.block_sparse_moe.shared_adapter.0.unit
language_model.model.layers.19.block_sparse_moe.shared_adapter.1.unit MixtralBlockParallelAdapterExpert(
  (adapter_w1): Linear(in_features=4096, out_features=32, bias=False)
  (adapter_w2): Linear(in_features=32, out_features=4096, bias=False)
  (act_fn): SiLU()
  (dropout): Dropout(p=0.1, inplace=False)
)
Initialized adapter matrices for language_model.model.layers.19.block_sparse_moe.shared_adapter.1.unit
language_model.model.layers.19.block_sparse_moe.shared_adapter.2.unit MixtralBlockParallelAdapterExpert(
  (adapter_w1): Linear(in_features=4096, out_features=32, bias=False)
  (adapter_w2): Linear(in_features=32, out_features=4096, bias=False)
  (act_fn): SiLU()
  (dropout): Dropout(p=0.1, inplace=False)
)
Initialized adapter matrices for language_model.model.layers.8.block_sparse_moe.shared_adapter.3.unit
language_model.model.layers.9.block_sparse_moe.shared_adapter.0.unit MixtralBlockParallelAdapterExpert(
  (adapter_w1): Linear(in_features=4096, out_features=32, bias=False)
  (adapter_w2): Linear(in_features=32, out_features=4096, bias=False)
  (act_fn): SiLU()
  (dropout): Dropout(p=0.1, inplace=False)
)
Initialized adapter matrices for language_model.model.layers.19.block_sparse_moe.shared_adapter.2.unit
language_model.model.layers.19.block_sparse_moe.shared_adapter.3.unit MixtralBlockParallelAdapterExpert(
  (adapter_w1): Linear(in_features=4096, out_features=32, bias=False)
  (adapter_w2): Linear(in_features=32, out_features=4096, bias=False)
  (act_fn): SiLU()
  (dropout): Dropout(p=0.1, inplace=False)
)
Initialized adapter matrices for language_model.model.layers.19.block_sparse_moe.shared_adapter.3.unit
language_model.model.layers.20.block_sparse_moe.shared_adapter.0.unit MixtralBlockParallelAdapterExpert(
  (adapter_w1): Linear(in_features=4096, out_features=32, bias=False)
  (adapter_w2): Linear(in_features=32, out_features=4096, bias=False)
  (act_fn): SiLU()
  (dropout): Dropout(p=0.1, inplace=False)
)
Initialized adapter matrices for language_model.model.layers.9.block_sparse_moe.shared_adapter.0.unit
language_model.model.layers.9.block_sparse_moe.shared_adapter.1.unit MixtralBlockParallelAdapterExpert(
  (adapter_w1): Linear(in_features=4096, out_features=32, bias=False)
  (adapter_w2): Linear(in_features=32, out_features=4096, bias=False)
  (act_fn): SiLU()
  (dropout): Dropout(p=0.1, inplace=False)
)
Initialized adapter matrices for language_model.model.layers.20.block_sparse_moe.shared_adapter.0.unit
language_model.model.layers.20.block_sparse_moe.shared_adapter.1.unit MixtralBlockParallelAdapterExpert(
  (adapter_w1): Linear(in_features=4096, out_features=32, bias=False)
  (adapter_w2): Linear(in_features=32, out_features=4096, bias=False)
  (act_fn): SiLU()
  (dropout): Dropout(p=0.1, inplace=False)
)
Initialized adapter matrices for language_model.model.layers.9.block_sparse_moe.shared_adapter.1.unit
language_model.model.layers.9.block_sparse_moe.shared_adapter.2.unit MixtralBlockParallelAdapterExpert(
  (adapter_w1): Linear(in_features=4096, out_features=32, bias=False)
  (adapter_w2): Linear(in_features=32, out_features=4096, bias=False)
  (act_fn): SiLU()
  (dropout): Dropout(p=0.1, inplace=False)
)
Initialized adapter matrices for language_model.model.layers.20.block_sparse_moe.shared_adapter.1.unit
language_model.model.layers.20.block_sparse_moe.shared_adapter.2.unit MixtralBlockParallelAdapterExpert(
  (adapter_w1): Linear(in_features=4096, out_features=32, bias=False)
  (adapter_w2): Linear(in_features=32, out_features=4096, bias=False)
  (act_fn): SiLU()
  (dropout): Dropout(p=0.1, inplace=False)
)
Initialized adapter matrices for language_model.model.layers.9.block_sparse_moe.shared_adapter.2.unit
language_model.model.layers.9.block_sparse_moe.shared_adapter.3.unit MixtralBlockParallelAdapterExpert(
  (adapter_w1): Linear(in_features=4096, out_features=32, bias=False)
  (adapter_w2): Linear(in_features=32, out_features=4096, bias=False)
  (act_fn): SiLU()
  (dropout): Dropout(p=0.1, inplace=False)
)
Initialized adapter matrices for language_model.model.layers.20.block_sparse_moe.shared_adapter.2.unit
language_model.model.layers.20.block_sparse_moe.shared_adapter.3.unit MixtralBlockParallelAdapterExpert(
  (adapter_w1): Linear(in_features=4096, out_features=32, bias=False)
  (adapter_w2): Linear(in_features=32, out_features=4096, bias=False)
  (act_fn): SiLU()
  (dropout): Dropout(p=0.1, inplace=False)
)
Initialized adapter matrices for language_model.model.layers.20.block_sparse_moe.shared_adapter.3.unit
language_model.model.layers.21.block_sparse_moe.shared_adapter.0.unit MixtralBlockParallelAdapterExpert(
  (adapter_w1): Linear(in_features=4096, out_features=32, bias=False)
  (adapter_w2): Linear(in_features=32, out_features=4096, bias=False)
  (act_fn): SiLU()
  (dropout): Dropout(p=0.1, inplace=False)
)
Initialized adapter matrices for language_model.model.layers.9.block_sparse_moe.shared_adapter.3.unit
language_model.model.layers.10.block_sparse_moe.shared_adapter.0.unit MixtralBlockParallelAdapterExpert(
  (adapter_w1): Linear(in_features=4096, out_features=32, bias=False)
  (adapter_w2): Linear(in_features=32, out_features=4096, bias=False)
  (act_fn): SiLU()
  (dropout): Dropout(p=0.1, inplace=False)
)
Initialized adapter matrices for language_model.model.layers.21.block_sparse_moe.shared_adapter.0.unit
language_model.model.layers.21.block_sparse_moe.shared_adapter.1.unit MixtralBlockParallelAdapterExpert(
  (adapter_w1): Linear(in_features=4096, out_features=32, bias=False)
  (adapter_w2): Linear(in_features=32, out_features=4096, bias=False)
  (act_fn): SiLU()
  (dropout): Dropout(p=0.1, inplace=False)
)
 ######################### trying init params ######################### Initialized adapter matrices for language_model.model.layers.10.block_sparse_moe.shared_adapter.0.unit
language_model.model.layers.10.block_sparse_moe.shared_adapter.1.unit MixtralBlockParallelAdapterExpert(
  (adapter_w1): Linear(in_features=4096, out_features=32, bias=False)
  (adapter_w2): Linear(in_features=32, out_features=4096, bias=False)
  (act_fn): SiLU()
  (dropout): Dropout(p=0.1, inplace=False)
)

language_model.model.layers.0.block_sparse_moe.shared_adapter.0.unit MixtralBlockParallelAdapterExpert(
  (adapter_w1): Linear(in_features=4096, out_features=32, bias=False)
  (adapter_w2): Linear(in_features=32, out_features=4096, bias=False)
  (act_fn): SiLU()
  (dropout): Dropout(p=0.1, inplace=False)
)
Initialized adapter matrices for language_model.model.layers.10.block_sparse_moe.shared_adapter.1.unit
language_model.model.layers.10.block_sparse_moe.shared_adapter.2.unit MixtralBlockParallelAdapterExpert(
  (adapter_w1): Linear(in_features=4096, out_features=32, bias=False)
  (adapter_w2): Linear(in_features=32, out_features=4096, bias=False)
  (act_fn): SiLU()
  (dropout): Dropout(p=0.1, inplace=False)
)
Initialized adapter matrices for language_model.model.layers.21.block_sparse_moe.shared_adapter.1.unit
language_model.model.layers.21.block_sparse_moe.shared_adapter.2.unit MixtralBlockParallelAdapterExpert(
  (adapter_w1): Linear(in_features=4096, out_features=32, bias=False)
  (adapter_w2): Linear(in_features=32, out_features=4096, bias=False)
  (act_fn): SiLU()
  (dropout): Dropout(p=0.1, inplace=False)
)
Initialized adapter matrices for language_model.model.layers.21.block_sparse_moe.shared_adapter.2.unit
language_model.model.layers.21.block_sparse_moe.shared_adapter.3.unit MixtralBlockParallelAdapterExpert(
  (adapter_w1): Linear(in_features=4096, out_features=32, bias=False)
  (adapter_w2): Linear(in_features=32, out_features=4096, bias=False)
  (act_fn): SiLU()
  (dropout): Dropout(p=0.1, inplace=False)
)
Initialized adapter matrices for language_model.model.layers.21.block_sparse_moe.shared_adapter.3.unit
language_model.model.layers.22.block_sparse_moe.shared_adapter.0.unit MixtralBlockParallelAdapterExpert(
  (adapter_w1): Linear(in_features=4096, out_features=32, bias=False)
  (adapter_w2): Linear(in_features=32, out_features=4096, bias=False)
  (act_fn): SiLU()
  (dropout): Dropout(p=0.1, inplace=False)
)
Initialized adapter matrices for language_model.model.layers.22.block_sparse_moe.shared_adapter.0.unit
language_model.model.layers.22.block_sparse_moe.shared_adapter.1.unit MixtralBlockParallelAdapterExpert(
  (adapter_w1): Linear(in_features=4096, out_features=32, bias=False)
  (adapter_w2): Linear(in_features=32, out_features=4096, bias=False)
  (act_fn): SiLU()
  (dropout): Dropout(p=0.1, inplace=False)
)
Initialized adapter matrices for language_model.model.layers.10.block_sparse_moe.shared_adapter.2.unit
language_model.model.layers.10.block_sparse_moe.shared_adapter.3.unit MixtralBlockParallelAdapterExpert(
  (adapter_w1): Linear(in_features=4096, out_features=32, bias=False)
  (adapter_w2): Linear(in_features=32, out_features=4096, bias=False)
  (act_fn): SiLU()
  (dropout): Dropout(p=0.1, inplace=False)
)
Initialized adapter matrices for language_model.model.layers.22.block_sparse_moe.shared_adapter.1.unit
language_model.model.layers.22.block_sparse_moe.shared_adapter.2.unit MixtralBlockParallelAdapterExpert(
  (adapter_w1): Linear(in_features=4096, out_features=32, bias=False)
  (adapter_w2): Linear(in_features=32, out_features=4096, bias=False)
  (act_fn): SiLU()
  (dropout): Dropout(p=0.1, inplace=False)
)
Initialized adapter matrices for language_model.model.layers.22.block_sparse_moe.shared_adapter.2.unit
language_model.model.layers.22.block_sparse_moe.shared_adapter.3.unit MixtralBlockParallelAdapterExpert(
  (adapter_w1): Linear(in_features=4096, out_features=32, bias=False)
  (adapter_w2): Linear(in_features=32, out_features=4096, bias=False)
  (act_fn): SiLU()
  (dropout): Dropout(p=0.1, inplace=False)
)
Initialized adapter matrices for language_model.model.layers.22.block_sparse_moe.shared_adapter.3.unit
language_model.model.layers.23.block_sparse_moe.shared_adapter.0.unit MixtralBlockParallelAdapterExpert(
  (adapter_w1): Linear(in_features=4096, out_features=32, bias=False)
  (adapter_w2): Linear(in_features=32, out_features=4096, bias=False)
  (act_fn): SiLU()
  (dropout): Dropout(p=0.1, inplace=False)
)
Initialized adapter matrices for language_model.model.layers.10.block_sparse_moe.shared_adapter.3.unit
language_model.model.layers.11.block_sparse_moe.shared_adapter.0.unit MixtralBlockParallelAdapterExpert(
  (adapter_w1): Linear(in_features=4096, out_features=32, bias=False)
  (adapter_w2): Linear(in_features=32, out_features=4096, bias=False)
  (act_fn): SiLU()
  (dropout): Dropout(p=0.1, inplace=False)
)
Initialized adapter matrices for language_model.model.layers.23.block_sparse_moe.shared_adapter.0.unit
language_model.model.layers.23.block_sparse_moe.shared_adapter.1.unit MixtralBlockParallelAdapterExpert(
  (adapter_w1): Linear(in_features=4096, out_features=32, bias=False)
  (adapter_w2): Linear(in_features=32, out_features=4096, bias=False)
  (act_fn): SiLU()
  (dropout): Dropout(p=0.1, inplace=False)
)
Initialized adapter matrices for language_model.model.layers.0.block_sparse_moe.shared_adapter.0.unit
language_model.model.layers.0.block_sparse_moe.shared_adapter.1.unit MixtralBlockParallelAdapterExpert(
  (adapter_w1): Linear(in_features=4096, out_features=32, bias=False)
  (adapter_w2): Linear(in_features=32, out_features=4096, bias=False)
  (act_fn): SiLU()
  (dropout): Dropout(p=0.1, inplace=False)
)
Initialized adapter matrices for language_model.model.layers.11.block_sparse_moe.shared_adapter.0.unit
language_model.model.layers.11.block_sparse_moe.shared_adapter.1.unit MixtralBlockParallelAdapterExpert(
  (adapter_w1): Linear(in_features=4096, out_features=32, bias=False)
  (adapter_w2): Linear(in_features=32, out_features=4096, bias=False)
  (act_fn): SiLU()
  (dropout): Dropout(p=0.1, inplace=False)
)
Initialized adapter matrices for language_model.model.layers.23.block_sparse_moe.shared_adapter.1.unit
language_model.model.layers.23.block_sparse_moe.shared_adapter.2.unit MixtralBlockParallelAdapterExpert(
  (adapter_w1): Linear(in_features=4096, out_features=32, bias=False)
  (adapter_w2): Linear(in_features=32, out_features=4096, bias=False)
  (act_fn): SiLU()
  (dropout): Dropout(p=0.1, inplace=False)
)
Initialized adapter matrices for language_model.model.layers.11.block_sparse_moe.shared_adapter.1.unit
language_model.model.layers.11.block_sparse_moe.shared_adapter.2.unit MixtralBlockParallelAdapterExpert(
  (adapter_w1): Linear(in_features=4096, out_features=32, bias=False)
  (adapter_w2): Linear(in_features=32, out_features=4096, bias=False)
  (act_fn): SiLU()
  (dropout): Dropout(p=0.1, inplace=False)
)
Initialized adapter matrices for language_model.model.layers.23.block_sparse_moe.shared_adapter.2.unit
language_model.model.layers.23.block_sparse_moe.shared_adapter.3.unit MixtralBlockParallelAdapterExpert(
  (adapter_w1): Linear(in_features=4096, out_features=32, bias=False)
  (adapter_w2): Linear(in_features=32, out_features=4096, bias=False)
  (act_fn): SiLU()
  (dropout): Dropout(p=0.1, inplace=False)
)
Initialized adapter matrices for language_model.model.layers.11.block_sparse_moe.shared_adapter.2.unit
language_model.model.layers.11.block_sparse_moe.shared_adapter.3.unit MixtralBlockParallelAdapterExpert(
  (adapter_w1): Linear(in_features=4096, out_features=32, bias=False)
  (adapter_w2): Linear(in_features=32, out_features=4096, bias=False)
  (act_fn): SiLU()
  (dropout): Dropout(p=0.1, inplace=False)
)
Initialized adapter matrices for language_model.model.layers.23.block_sparse_moe.shared_adapter.3.unit
language_model.model.layers.24.block_sparse_moe.shared_adapter.0.unit MixtralBlockParallelAdapterExpert(
  (adapter_w1): Linear(in_features=4096, out_features=32, bias=False)
  (adapter_w2): Linear(in_features=32, out_features=4096, bias=False)
  (act_fn): SiLU()
  (dropout): Dropout(p=0.1, inplace=False)
)
Initialized adapter matrices for language_model.model.layers.11.block_sparse_moe.shared_adapter.3.unit
language_model.model.layers.12.block_sparse_moe.shared_adapter.0.unit MixtralBlockParallelAdapterExpert(
  (adapter_w1): Linear(in_features=4096, out_features=32, bias=False)
  (adapter_w2): Linear(in_features=32, out_features=4096, bias=False)
  (act_fn): SiLU()
  (dropout): Dropout(p=0.1, inplace=False)
)
Initialized adapter matrices for language_model.model.layers.24.block_sparse_moe.shared_adapter.0.unit
language_model.model.layers.24.block_sparse_moe.shared_adapter.1.unit MixtralBlockParallelAdapterExpert(
  (adapter_w1): Linear(in_features=4096, out_features=32, bias=False)
  (adapter_w2): Linear(in_features=32, out_features=4096, bias=False)
  (act_fn): SiLU()
  (dropout): Dropout(p=0.1, inplace=False)
)
Initialized adapter matrices for language_model.model.layers.0.block_sparse_moe.shared_adapter.1.unit
language_model.model.layers.0.block_sparse_moe.shared_adapter.2.unit MixtralBlockParallelAdapterExpert(
  (adapter_w1): Linear(in_features=4096, out_features=32, bias=False)
  (adapter_w2): Linear(in_features=32, out_features=4096, bias=False)
  (act_fn): SiLU()
  (dropout): Dropout(p=0.1, inplace=False)
)
Initialized adapter matrices for language_model.model.layers.12.block_sparse_moe.shared_adapter.0.unit
language_model.model.layers.12.block_sparse_moe.shared_adapter.1.unit MixtralBlockParallelAdapterExpert(
  (adapter_w1): Linear(in_features=4096, out_features=32, bias=False)
  (adapter_w2): Linear(in_features=32, out_features=4096, bias=False)
  (act_fn): SiLU()
  (dropout): Dropout(p=0.1, inplace=False)
)
Initialized adapter matrices for language_model.model.layers.24.block_sparse_moe.shared_adapter.1.unit
language_model.model.layers.24.block_sparse_moe.shared_adapter.2.unit MixtralBlockParallelAdapterExpert(
  (adapter_w1): Linear(in_features=4096, out_features=32, bias=False)
  (adapter_w2): Linear(in_features=32, out_features=4096, bias=False)
  (act_fn): SiLU()
  (dropout): Dropout(p=0.1, inplace=False)
)
Initialized adapter matrices for language_model.model.layers.12.block_sparse_moe.shared_adapter.1.unit
language_model.model.layers.12.block_sparse_moe.shared_adapter.2.unit MixtralBlockParallelAdapterExpert(
  (adapter_w1): Linear(in_features=4096, out_features=32, bias=False)
  (adapter_w2): Linear(in_features=32, out_features=4096, bias=False)
  (act_fn): SiLU()
  (dropout): Dropout(p=0.1, inplace=False)
)
Initialized adapter matrices for language_model.model.layers.24.block_sparse_moe.shared_adapter.2.unit
language_model.model.layers.24.block_sparse_moe.shared_adapter.3.unit MixtralBlockParallelAdapterExpert(
  (adapter_w1): Linear(in_features=4096, out_features=32, bias=False)
  (adapter_w2): Linear(in_features=32, out_features=4096, bias=False)
  (act_fn): SiLU()
  (dropout): Dropout(p=0.1, inplace=False)
)
Initialized adapter matrices for language_model.model.layers.12.block_sparse_moe.shared_adapter.2.unitInitialized adapter matrices for language_model.model.layers.24.block_sparse_moe.shared_adapter.3.unit

language_model.model.layers.12.block_sparse_moe.shared_adapter.3.unitlanguage_model.model.layers.25.block_sparse_moe.shared_adapter.0.unit MixtralBlockParallelAdapterExpert(
  (adapter_w1): Linear(in_features=4096, out_features=32, bias=False)
  (adapter_w2): Linear(in_features=32, out_features=4096, bias=False)
  (act_fn): SiLU()
  (dropout): Dropout(p=0.1, inplace=False)
)
 MixtralBlockParallelAdapterExpert(
  (adapter_w1): Linear(in_features=4096, out_features=32, bias=False)
  (adapter_w2): Linear(in_features=32, out_features=4096, bias=False)
  (act_fn): SiLU()
  (dropout): Dropout(p=0.1, inplace=False)
)
Initialized adapter matrices for language_model.model.layers.0.block_sparse_moe.shared_adapter.2.unit
language_model.model.layers.0.block_sparse_moe.shared_adapter.3.unit MixtralBlockParallelAdapterExpert(
  (adapter_w1): Linear(in_features=4096, out_features=32, bias=False)
  (adapter_w2): Linear(in_features=32, out_features=4096, bias=False)
  (act_fn): SiLU()
  (dropout): Dropout(p=0.1, inplace=False)
)
Initialized adapter matrices for language_model.model.layers.25.block_sparse_moe.shared_adapter.0.unit
language_model.model.layers.25.block_sparse_moe.shared_adapter.1.unit MixtralBlockParallelAdapterExpert(
  (adapter_w1): Linear(in_features=4096, out_features=32, bias=False)
  (adapter_w2): Linear(in_features=32, out_features=4096, bias=False)
  (act_fn): SiLU()
  (dropout): Dropout(p=0.1, inplace=False)
)
Initialized adapter matrices for language_model.model.layers.25.block_sparse_moe.shared_adapter.1.unit
language_model.model.layers.25.block_sparse_moe.shared_adapter.2.unit MixtralBlockParallelAdapterExpert(
  (adapter_w1): Linear(in_features=4096, out_features=32, bias=False)
  (adapter_w2): Linear(in_features=32, out_features=4096, bias=False)
  (act_fn): SiLU()
  (dropout): Dropout(p=0.1, inplace=False)
)
Initialized adapter matrices for language_model.model.layers.25.block_sparse_moe.shared_adapter.2.unit
language_model.model.layers.25.block_sparse_moe.shared_adapter.3.unit MixtralBlockParallelAdapterExpert(
  (adapter_w1): Linear(in_features=4096, out_features=32, bias=False)
  (adapter_w2): Linear(in_features=32, out_features=4096, bias=False)
  (act_fn): SiLU()
  (dropout): Dropout(p=0.1, inplace=False)
)
Initialized adapter matrices for language_model.model.layers.12.block_sparse_moe.shared_adapter.3.unit
language_model.model.layers.13.block_sparse_moe.shared_adapter.0.unit MixtralBlockParallelAdapterExpert(
  (adapter_w1): Linear(in_features=4096, out_features=32, bias=False)
  (adapter_w2): Linear(in_features=32, out_features=4096, bias=False)
  (act_fn): SiLU()
  (dropout): Dropout(p=0.1, inplace=False)
)
Initialized adapter matrices for language_model.model.layers.25.block_sparse_moe.shared_adapter.3.unit
language_model.model.layers.26.block_sparse_moe.shared_adapter.0.unit MixtralBlockParallelAdapterExpert(
  (adapter_w1): Linear(in_features=4096, out_features=32, bias=False)
  (adapter_w2): Linear(in_features=32, out_features=4096, bias=False)
  (act_fn): SiLU()
  (dropout): Dropout(p=0.1, inplace=False)
)
Initialized adapter matrices for language_model.model.layers.0.block_sparse_moe.shared_adapter.3.unit
language_model.model.layers.1.block_sparse_moe.shared_adapter.0.unit MixtralBlockParallelAdapterExpert(
  (adapter_w1): Linear(in_features=4096, out_features=32, bias=False)
  (adapter_w2): Linear(in_features=32, out_features=4096, bias=False)
  (act_fn): SiLU()
  (dropout): Dropout(p=0.1, inplace=False)
)
Initialized adapter matrices for language_model.model.layers.26.block_sparse_moe.shared_adapter.0.unit
language_model.model.layers.26.block_sparse_moe.shared_adapter.1.unit MixtralBlockParallelAdapterExpert(
  (adapter_w1): Linear(in_features=4096, out_features=32, bias=False)
  (adapter_w2): Linear(in_features=32, out_features=4096, bias=False)
  (act_fn): SiLU()
  (dropout): Dropout(p=0.1, inplace=False)
)
Initialized adapter matrices for language_model.model.layers.26.block_sparse_moe.shared_adapter.1.unit
language_model.model.layers.26.block_sparse_moe.shared_adapter.2.unit MixtralBlockParallelAdapterExpert(
  (adapter_w1): Linear(in_features=4096, out_features=32, bias=False)
  (adapter_w2): Linear(in_features=32, out_features=4096, bias=False)
  (act_fn): SiLU()
  (dropout): Dropout(p=0.1, inplace=False)
)
Initialized adapter matrices for language_model.model.layers.13.block_sparse_moe.shared_adapter.0.unit
language_model.model.layers.13.block_sparse_moe.shared_adapter.1.unit MixtralBlockParallelAdapterExpert(
  (adapter_w1): Linear(in_features=4096, out_features=32, bias=False)
  (adapter_w2): Linear(in_features=32, out_features=4096, bias=False)
  (act_fn): SiLU()
  (dropout): Dropout(p=0.1, inplace=False)
)
Initialized adapter matrices for language_model.model.layers.26.block_sparse_moe.shared_adapter.2.unit
language_model.model.layers.26.block_sparse_moe.shared_adapter.3.unit MixtralBlockParallelAdapterExpert(
  (adapter_w1): Linear(in_features=4096, out_features=32, bias=False)
  (adapter_w2): Linear(in_features=32, out_features=4096, bias=False)
  (act_fn): SiLU()
  (dropout): Dropout(p=0.1, inplace=False)
)
Initialized adapter matrices for language_model.model.layers.26.block_sparse_moe.shared_adapter.3.unit
language_model.model.layers.27.block_sparse_moe.shared_adapter.0.unit MixtralBlockParallelAdapterExpert(
  (adapter_w1): Linear(in_features=4096, out_features=32, bias=False)
  (adapter_w2): Linear(in_features=32, out_features=4096, bias=False)
  (act_fn): SiLU()
  (dropout): Dropout(p=0.1, inplace=False)
)
Initialized adapter matrices for language_model.model.layers.13.block_sparse_moe.shared_adapter.1.unit
language_model.model.layers.13.block_sparse_moe.shared_adapter.2.unit MixtralBlockParallelAdapterExpert(
  (adapter_w1): Linear(in_features=4096, out_features=32, bias=False)
  (adapter_w2): Linear(in_features=32, out_features=4096, bias=False)
  (act_fn): SiLU()
  (dropout): Dropout(p=0.1, inplace=False)
)
Initialized adapter matrices for language_model.model.layers.1.block_sparse_moe.shared_adapter.0.unit
language_model.model.layers.1.block_sparse_moe.shared_adapter.1.unit MixtralBlockParallelAdapterExpert(
  (adapter_w1): Linear(in_features=4096, out_features=32, bias=False)
  (adapter_w2): Linear(in_features=32, out_features=4096, bias=False)
  (act_fn): SiLU()
  (dropout): Dropout(p=0.1, inplace=False)
)
Initialized adapter matrices for language_model.model.layers.27.block_sparse_moe.shared_adapter.0.unit
language_model.model.layers.27.block_sparse_moe.shared_adapter.1.unit MixtralBlockParallelAdapterExpert(
  (adapter_w1): Linear(in_features=4096, out_features=32, bias=False)
  (adapter_w2): Linear(in_features=32, out_features=4096, bias=False)
  (act_fn): SiLU()
  (dropout): Dropout(p=0.1, inplace=False)
)
Initialized adapter matrices for language_model.model.layers.13.block_sparse_moe.shared_adapter.2.unit
language_model.model.layers.13.block_sparse_moe.shared_adapter.3.unit MixtralBlockParallelAdapterExpert(
  (adapter_w1): Linear(in_features=4096, out_features=32, bias=False)
  (adapter_w2): Linear(in_features=32, out_features=4096, bias=False)
  (act_fn): SiLU()
  (dropout): Dropout(p=0.1, inplace=False)
)
Initialized adapter matrices for language_model.model.layers.27.block_sparse_moe.shared_adapter.1.unit
language_model.model.layers.27.block_sparse_moe.shared_adapter.2.unit MixtralBlockParallelAdapterExpert(
  (adapter_w1): Linear(in_features=4096, out_features=32, bias=False)
  (adapter_w2): Linear(in_features=32, out_features=4096, bias=False)
  (act_fn): SiLU()
  (dropout): Dropout(p=0.1, inplace=False)
)
Initialized adapter matrices for language_model.model.layers.27.block_sparse_moe.shared_adapter.2.unit
language_model.model.layers.27.block_sparse_moe.shared_adapter.3.unit MixtralBlockParallelAdapterExpert(
  (adapter_w1): Linear(in_features=4096, out_features=32, bias=False)
  (adapter_w2): Linear(in_features=32, out_features=4096, bias=False)
  (act_fn): SiLU()
  (dropout): Dropout(p=0.1, inplace=False)
)
Initialized adapter matrices for language_model.model.layers.27.block_sparse_moe.shared_adapter.3.unit
Initialized adapter matrices for language_model.model.layers.13.block_sparse_moe.shared_adapter.3.unit
language_model.model.layers.28.block_sparse_moe.shared_adapter.0.unit MixtralBlockParallelAdapterExpert(
  (adapter_w1): Linear(in_features=4096, out_features=32, bias=False)
  (adapter_w2): Linear(in_features=32, out_features=4096, bias=False)
  (act_fn): SiLU()
  (dropout): Dropout(p=0.1, inplace=False)
)
language_model.model.layers.14.block_sparse_moe.shared_adapter.0.unit MixtralBlockParallelAdapterExpert(
  (adapter_w1): Linear(in_features=4096, out_features=32, bias=False)
  (adapter_w2): Linear(in_features=32, out_features=4096, bias=False)
  (act_fn): SiLU()
  (dropout): Dropout(p=0.1, inplace=False)
)
Initialized adapter matrices for language_model.model.layers.28.block_sparse_moe.shared_adapter.0.unit
language_model.model.layers.28.block_sparse_moe.shared_adapter.1.unit MixtralBlockParallelAdapterExpert(
  (adapter_w1): Linear(in_features=4096, out_features=32, bias=False)
  (adapter_w2): Linear(in_features=32, out_features=4096, bias=False)
  (act_fn): SiLU()
  (dropout): Dropout(p=0.1, inplace=False)
)
Initialized adapter matrices for language_model.model.layers.1.block_sparse_moe.shared_adapter.1.unit
language_model.model.layers.1.block_sparse_moe.shared_adapter.2.unit MixtralBlockParallelAdapterExpert(
  (adapter_w1): Linear(in_features=4096, out_features=32, bias=False)
  (adapter_w2): Linear(in_features=32, out_features=4096, bias=False)
  (act_fn): SiLU()
  (dropout): Dropout(p=0.1, inplace=False)
)
Initialized adapter matrices for language_model.model.layers.14.block_sparse_moe.shared_adapter.0.unit
language_model.model.layers.14.block_sparse_moe.shared_adapter.1.unit MixtralBlockParallelAdapterExpert(
  (adapter_w1): Linear(in_features=4096, out_features=32, bias=False)
  (adapter_w2): Linear(in_features=32, out_features=4096, bias=False)
  (act_fn): SiLU()
  (dropout): Dropout(p=0.1, inplace=False)
)
Initialized adapter matrices for language_model.model.layers.28.block_sparse_moe.shared_adapter.1.unit
language_model.model.layers.28.block_sparse_moe.shared_adapter.2.unit MixtralBlockParallelAdapterExpert(
  (adapter_w1): Linear(in_features=4096, out_features=32, bias=False)
  (adapter_w2): Linear(in_features=32, out_features=4096, bias=False)
  (act_fn): SiLU()
  (dropout): Dropout(p=0.1, inplace=False)
)
Initialized adapter matrices for language_model.model.layers.28.block_sparse_moe.shared_adapter.2.unit
language_model.model.layers.28.block_sparse_moe.shared_adapter.3.unit MixtralBlockParallelAdapterExpert(
  (adapter_w1): Linear(in_features=4096, out_features=32, bias=False)
  (adapter_w2): Linear(in_features=32, out_features=4096, bias=False)
  (act_fn): SiLU()
  (dropout): Dropout(p=0.1, inplace=False)
)
Initialized adapter matrices for language_model.model.layers.14.block_sparse_moe.shared_adapter.1.unit
language_model.model.layers.14.block_sparse_moe.shared_adapter.2.unit MixtralBlockParallelAdapterExpert(
  (adapter_w1): Linear(in_features=4096, out_features=32, bias=False)
  (adapter_w2): Linear(in_features=32, out_features=4096, bias=False)
  (act_fn): SiLU()
  (dropout): Dropout(p=0.1, inplace=False)
)
Initialized adapter matrices for language_model.model.layers.28.block_sparse_moe.shared_adapter.3.unit
language_model.model.layers.29.block_sparse_moe.shared_adapter.0.unit MixtralBlockParallelAdapterExpert(
  (adapter_w1): Linear(in_features=4096, out_features=32, bias=False)
  (adapter_w2): Linear(in_features=32, out_features=4096, bias=False)
  (act_fn): SiLU()
  (dropout): Dropout(p=0.1, inplace=False)
)
Initialized adapter matrices for language_model.model.layers.14.block_sparse_moe.shared_adapter.2.unit
language_model.model.layers.14.block_sparse_moe.shared_adapter.3.unit MixtralBlockParallelAdapterExpert(
  (adapter_w1): Linear(in_features=4096, out_features=32, bias=False)
  (adapter_w2): Linear(in_features=32, out_features=4096, bias=False)
  (act_fn): SiLU()
  (dropout): Dropout(p=0.1, inplace=False)
)
Initialized adapter matrices for language_model.model.layers.29.block_sparse_moe.shared_adapter.0.unit
language_model.model.layers.29.block_sparse_moe.shared_adapter.1.unit MixtralBlockParallelAdapterExpert(
  (adapter_w1): Linear(in_features=4096, out_features=32, bias=False)
  (adapter_w2): Linear(in_features=32, out_features=4096, bias=False)
  (act_fn): SiLU()
  (dropout): Dropout(p=0.1, inplace=False)
)
Initialized adapter matrices for language_model.model.layers.1.block_sparse_moe.shared_adapter.2.unit
language_model.model.layers.1.block_sparse_moe.shared_adapter.3.unit MixtralBlockParallelAdapterExpert(
  (adapter_w1): Linear(in_features=4096, out_features=32, bias=False)
  (adapter_w2): Linear(in_features=32, out_features=4096, bias=False)
  (act_fn): SiLU()
  (dropout): Dropout(p=0.1, inplace=False)
)
Initialized adapter matrices for language_model.model.layers.29.block_sparse_moe.shared_adapter.1.unit
language_model.model.layers.29.block_sparse_moe.shared_adapter.2.unit MixtralBlockParallelAdapterExpert(
  (adapter_w1): Linear(in_features=4096, out_features=32, bias=False)
  (adapter_w2): Linear(in_features=32, out_features=4096, bias=False)
  (act_fn): SiLU()
  (dropout): Dropout(p=0.1, inplace=False)
)
Initialized adapter matrices for language_model.model.layers.14.block_sparse_moe.shared_adapter.3.unit
language_model.model.layers.15.block_sparse_moe.shared_adapter.0.unit MixtralBlockParallelAdapterExpert(
  (adapter_w1): Linear(in_features=4096, out_features=32, bias=False)
  (adapter_w2): Linear(in_features=32, out_features=4096, bias=False)
  (act_fn): SiLU()
  (dropout): Dropout(p=0.1, inplace=False)
)
Initialized adapter matrices for language_model.model.layers.29.block_sparse_moe.shared_adapter.2.unit
language_model.model.layers.29.block_sparse_moe.shared_adapter.3.unit MixtralBlockParallelAdapterExpert(
  (adapter_w1): Linear(in_features=4096, out_features=32, bias=False)
  (adapter_w2): Linear(in_features=32, out_features=4096, bias=False)
  (act_fn): SiLU()
  (dropout): Dropout(p=0.1, inplace=False)
)
Initialized adapter matrices for language_model.model.layers.29.block_sparse_moe.shared_adapter.3.unit
language_model.model.layers.30.block_sparse_moe.shared_adapter.0.unit MixtralBlockParallelAdapterExpert(
  (adapter_w1): Linear(in_features=4096, out_features=32, bias=False)
  (adapter_w2): Linear(in_features=32, out_features=4096, bias=False)
  (act_fn): SiLU()
  (dropout): Dropout(p=0.1, inplace=False)
)
Initialized adapter matrices for language_model.model.layers.15.block_sparse_moe.shared_adapter.0.unit
language_model.model.layers.15.block_sparse_moe.shared_adapter.1.unit MixtralBlockParallelAdapterExpert(
  (adapter_w1): Linear(in_features=4096, out_features=32, bias=False)
  (adapter_w2): Linear(in_features=32, out_features=4096, bias=False)
  (act_fn): SiLU()
  (dropout): Dropout(p=0.1, inplace=False)
)
Initialized adapter matrices for language_model.model.layers.1.block_sparse_moe.shared_adapter.3.unit
language_model.model.layers.2.block_sparse_moe.shared_adapter.0.unit MixtralBlockParallelAdapterExpert(
  (adapter_w1): Linear(in_features=4096, out_features=32, bias=False)
  (adapter_w2): Linear(in_features=32, out_features=4096, bias=False)
  (act_fn): SiLU()
  (dropout): Dropout(p=0.1, inplace=False)
)
Initialized adapter matrices for language_model.model.layers.30.block_sparse_moe.shared_adapter.0.unit
language_model.model.layers.30.block_sparse_moe.shared_adapter.1.unit MixtralBlockParallelAdapterExpert(
  (adapter_w1): Linear(in_features=4096, out_features=32, bias=False)
  (adapter_w2): Linear(in_features=32, out_features=4096, bias=False)
  (act_fn): SiLU()
  (dropout): Dropout(p=0.1, inplace=False)
)
Initialized adapter matrices for language_model.model.layers.30.block_sparse_moe.shared_adapter.1.unit
language_model.model.layers.30.block_sparse_moe.shared_adapter.2.unit MixtralBlockParallelAdapterExpert(
  (adapter_w1): Linear(in_features=4096, out_features=32, bias=False)
  (adapter_w2): Linear(in_features=32, out_features=4096, bias=False)
  (act_fn): SiLU()
  (dropout): Dropout(p=0.1, inplace=False)
)
Loading checkpoint shards:  95%|█████████▌| 19/20 [00:27<00:01,  1.73s/it]Initialized adapter matrices for language_model.model.layers.30.block_sparse_moe.shared_adapter.2.unit
language_model.model.layers.30.block_sparse_moe.shared_adapter.3.unit MixtralBlockParallelAdapterExpert(
  (adapter_w1): Linear(in_features=4096, out_features=32, bias=False)
  (adapter_w2): Linear(in_features=32, out_features=4096, bias=False)
  (act_fn): SiLU()
  (dropout): Dropout(p=0.1, inplace=False)
)
Initialized adapter matrices for language_model.model.layers.15.block_sparse_moe.shared_adapter.1.unit
language_model.model.layers.15.block_sparse_moe.shared_adapter.2.unit MixtralBlockParallelAdapterExpert(
  (adapter_w1): Linear(in_features=4096, out_features=32, bias=False)
  (adapter_w2): Linear(in_features=32, out_features=4096, bias=False)
  (act_fn): SiLU()
  (dropout): Dropout(p=0.1, inplace=False)
)
Initialized adapter matrices for language_model.model.layers.30.block_sparse_moe.shared_adapter.3.unit
language_model.model.layers.31.block_sparse_moe.shared_adapter.0.unit MixtralBlockParallelAdapterExpert(
  (adapter_w1): Linear(in_features=4096, out_features=32, bias=False)
  (adapter_w2): Linear(in_features=32, out_features=4096, bias=False)
  (act_fn): SiLU()
  (dropout): Dropout(p=0.1, inplace=False)
)
Initialized adapter matrices for language_model.model.layers.2.block_sparse_moe.shared_adapter.0.unit
language_model.model.layers.2.block_sparse_moe.shared_adapter.1.unit MixtralBlockParallelAdapterExpert(
  (adapter_w1): Linear(in_features=4096, out_features=32, bias=False)
  (adapter_w2): Linear(in_features=32, out_features=4096, bias=False)
  (act_fn): SiLU()
  (dropout): Dropout(p=0.1, inplace=False)
)
Initialized adapter matrices for language_model.model.layers.2.block_sparse_moe.shared_adapter.1.unit
language_model.model.layers.2.block_sparse_moe.shared_adapter.2.unit MixtralBlockParallelAdapterExpert(
  (adapter_w1): Linear(in_features=4096, out_features=32, bias=False)
  (adapter_w2): Linear(in_features=32, out_features=4096, bias=False)
  (act_fn): SiLU()
  (dropout): Dropout(p=0.1, inplace=False)
)
Initialized adapter matrices for language_model.model.layers.15.block_sparse_moe.shared_adapter.2.unit
language_model.model.layers.15.block_sparse_moe.shared_adapter.3.unit MixtralBlockParallelAdapterExpert(
  (adapter_w1): Linear(in_features=4096, out_features=32, bias=False)
  (adapter_w2): Linear(in_features=32, out_features=4096, bias=False)
  (act_fn): SiLU()
  (dropout): Dropout(p=0.1, inplace=False)
)
Initialized adapter matrices for language_model.model.layers.2.block_sparse_moe.shared_adapter.2.unit
language_model.model.layers.2.block_sparse_moe.shared_adapter.3.unit MixtralBlockParallelAdapterExpert(
  (adapter_w1): Linear(in_features=4096, out_features=32, bias=False)
  (adapter_w2): Linear(in_features=32, out_features=4096, bias=False)
  (act_fn): SiLU()
  (dropout): Dropout(p=0.1, inplace=False)
)
Initialized adapter matrices for language_model.model.layers.31.block_sparse_moe.shared_adapter.0.unit
language_model.model.layers.31.block_sparse_moe.shared_adapter.1.unit MixtralBlockParallelAdapterExpert(
  (adapter_w1): Linear(in_features=4096, out_features=32, bias=False)
  (adapter_w2): Linear(in_features=32, out_features=4096, bias=False)
  (act_fn): SiLU()
  (dropout): Dropout(p=0.1, inplace=False)
)
Initialized adapter matrices for language_model.model.layers.31.block_sparse_moe.shared_adapter.1.unit
language_model.model.layers.31.block_sparse_moe.shared_adapter.2.unit MixtralBlockParallelAdapterExpert(
  (adapter_w1): Linear(in_features=4096, out_features=32, bias=False)
  (adapter_w2): Linear(in_features=32, out_features=4096, bias=False)
  (act_fn): SiLU()
  (dropout): Dropout(p=0.1, inplace=False)
)
Initialized adapter matrices for language_model.model.layers.15.block_sparse_moe.shared_adapter.3.unit
language_model.model.layers.16.block_sparse_moe.shared_adapter.0.unit MixtralBlockParallelAdapterExpert(
  (adapter_w1): Linear(in_features=4096, out_features=32, bias=False)
  (adapter_w2): Linear(in_features=32, out_features=4096, bias=False)
  (act_fn): SiLU()
  (dropout): Dropout(p=0.1, inplace=False)
)
Initialized adapter matrices for language_model.model.layers.31.block_sparse_moe.shared_adapter.2.unit
language_model.model.layers.31.block_sparse_moe.shared_adapter.3.unit MixtralBlockParallelAdapterExpert(
  (adapter_w1): Linear(in_features=4096, out_features=32, bias=False)
  (adapter_w2): Linear(in_features=32, out_features=4096, bias=False)
  (act_fn): SiLU()
  (dropout): Dropout(p=0.1, inplace=False)
)
Initialized adapter matrices for language_model.model.layers.2.block_sparse_moe.shared_adapter.3.unit
language_model.model.layers.3.block_sparse_moe.shared_adapter.0.unit MixtralBlockParallelAdapterExpert(
  (adapter_w1): Linear(in_features=4096, out_features=32, bias=False)
  (adapter_w2): Linear(in_features=32, out_features=4096, bias=False)
  (act_fn): SiLU()
  (dropout): Dropout(p=0.1, inplace=False)
)
Initialized adapter matrices for language_model.model.layers.31.block_sparse_moe.shared_adapter.3.unit
Initialized adapter matrices for language_model.model.layers.16.block_sparse_moe.shared_adapter.0.unit
language_model.model.layers.16.block_sparse_moe.shared_adapter.1.unit MixtralBlockParallelAdapterExpert(
  (adapter_w1): Linear(in_features=4096, out_features=32, bias=False)
  (adapter_w2): Linear(in_features=32, out_features=4096, bias=False)
  (act_fn): SiLU()
  (dropout): Dropout(p=0.1, inplace=False)
)
Initialized adapter matrices for language_model.model.layers.3.block_sparse_moe.shared_adapter.0.unit
language_model.model.layers.3.block_sparse_moe.shared_adapter.1.unit MixtralBlockParallelAdapterExpert(
  (adapter_w1): Linear(in_features=4096, out_features=32, bias=False)
  (adapter_w2): Linear(in_features=32, out_features=4096, bias=False)
  (act_fn): SiLU()
  (dropout): Dropout(p=0.1, inplace=False)
)
Convert trainable params: 33554432 || all params: 47060850688 || trainable%: 0.07
Initialized adapter matrices for language_model.model.layers.3.block_sparse_moe.shared_adapter.1.unit
language_model.model.layers.3.block_sparse_moe.shared_adapter.2.unit MixtralBlockParallelAdapterExpert(
  (adapter_w1): Linear(in_features=4096, out_features=32, bias=False)
  (adapter_w2): Linear(in_features=32, out_features=4096, bias=False)
  (act_fn): SiLU()
  (dropout): Dropout(p=0.1, inplace=False)
)
Initialized adapter matrices for language_model.model.layers.16.block_sparse_moe.shared_adapter.1.unit
language_model.model.layers.16.block_sparse_moe.shared_adapter.2.unit MixtralBlockParallelAdapterExpert(
  (adapter_w1): Linear(in_features=4096, out_features=32, bias=False)
  (adapter_w2): Linear(in_features=32, out_features=4096, bias=False)
  (act_fn): SiLU()
  (dropout): Dropout(p=0.1, inplace=False)
)
Initialized adapter matrices for language_model.model.layers.3.block_sparse_moe.shared_adapter.2.unit
language_model.model.layers.3.block_sparse_moe.shared_adapter.3.unit MixtralBlockParallelAdapterExpert(
  (adapter_w1): Linear(in_features=4096, out_features=32, bias=False)
  (adapter_w2): Linear(in_features=32, out_features=4096, bias=False)
  (act_fn): SiLU()
  (dropout): Dropout(p=0.1, inplace=False)
)
Initialized adapter matrices for language_model.model.layers.16.block_sparse_moe.shared_adapter.2.unit
language_model.model.layers.16.block_sparse_moe.shared_adapter.3.unit MixtralBlockParallelAdapterExpert(
  (adapter_w1): Linear(in_features=4096, out_features=32, bias=False)
  (adapter_w2): Linear(in_features=32, out_features=4096, bias=False)
  (act_fn): SiLU()
  (dropout): Dropout(p=0.1, inplace=False)
)
Print trainable params: 54534144 || all params: 47060850688 || trainable%: 0.12
Initialized adapter matrices for language_model.model.layers.16.block_sparse_moe.shared_adapter.3.unit
language_model.model.layers.17.block_sparse_moe.shared_adapter.0.unit MixtralBlockParallelAdapterExpert(
  (adapter_w1): Linear(in_features=4096, out_features=32, bias=False)
  (adapter_w2): Linear(in_features=32, out_features=4096, bias=False)
  (act_fn): SiLU()
  (dropout): Dropout(p=0.1, inplace=False)
)
Initialized adapter matrices for language_model.model.layers.3.block_sparse_moe.shared_adapter.3.unit
language_model.model.layers.4.block_sparse_moe.shared_adapter.0.unit MixtralBlockParallelAdapterExpert(
  (adapter_w1): Linear(in_features=4096, out_features=32, bias=False)
  (adapter_w2): Linear(in_features=32, out_features=4096, bias=False)
  (act_fn): SiLU()
  (dropout): Dropout(p=0.1, inplace=False)
)
Initialized adapter matrices for language_model.model.layers.17.block_sparse_moe.shared_adapter.0.unit
language_model.model.layers.17.block_sparse_moe.shared_adapter.1.unit MixtralBlockParallelAdapterExpert(
  (adapter_w1): Linear(in_features=4096, out_features=32, bias=False)
  (adapter_w2): Linear(in_features=32, out_features=4096, bias=False)
  (act_fn): SiLU()
  (dropout): Dropout(p=0.1, inplace=False)
)
Initialized adapter matrices for language_model.model.layers.4.block_sparse_moe.shared_adapter.0.unit
language_model.model.layers.4.block_sparse_moe.shared_adapter.1.unit MixtralBlockParallelAdapterExpert(
  (adapter_w1): Linear(in_features=4096, out_features=32, bias=False)
  (adapter_w2): Linear(in_features=32, out_features=4096, bias=False)
  (act_fn): SiLU()
  (dropout): Dropout(p=0.1, inplace=False)
)
Initialized adapter matrices for language_model.model.layers.17.block_sparse_moe.shared_adapter.1.unit
language_model.model.layers.17.block_sparse_moe.shared_adapter.2.unit MixtralBlockParallelAdapterExpert(
  (adapter_w1): Linear(in_features=4096, out_features=32, bias=False)
  (adapter_w2): Linear(in_features=32, out_features=4096, bias=False)
  (act_fn): SiLU()
  (dropout): Dropout(p=0.1, inplace=False)
)
Initialized adapter matrices for language_model.model.layers.4.block_sparse_moe.shared_adapter.1.unit
language_model.model.layers.4.block_sparse_moe.shared_adapter.2.unit MixtralBlockParallelAdapterExpert(
  (adapter_w1): Linear(in_features=4096, out_features=32, bias=False)
  (adapter_w2): Linear(in_features=32, out_features=4096, bias=False)
  (act_fn): SiLU()
  (dropout): Dropout(p=0.1, inplace=False)
)
Initialized adapter matrices for language_model.model.layers.17.block_sparse_moe.shared_adapter.2.unit
language_model.model.layers.17.block_sparse_moe.shared_adapter.3.unit MixtralBlockParallelAdapterExpert(
  (adapter_w1): Linear(in_features=4096, out_features=32, bias=False)
  (adapter_w2): Linear(in_features=32, out_features=4096, bias=False)
  (act_fn): SiLU()
  (dropout): Dropout(p=0.1, inplace=False)
)
Initialized adapter matrices for language_model.model.layers.17.block_sparse_moe.shared_adapter.3.unit
language_model.model.layers.18.block_sparse_moe.shared_adapter.0.unit MixtralBlockParallelAdapterExpert(
  (adapter_w1): Linear(in_features=4096, out_features=32, bias=False)
  (adapter_w2): Linear(in_features=32, out_features=4096, bias=False)
  (act_fn): SiLU()
  (dropout): Dropout(p=0.1, inplace=False)
)
Initialized adapter matrices for language_model.model.layers.18.block_sparse_moe.shared_adapter.0.unit
language_model.model.layers.18.block_sparse_moe.shared_adapter.1.unit MixtralBlockParallelAdapterExpert(
  (adapter_w1): Linear(in_features=4096, out_features=32, bias=False)
  (adapter_w2): Linear(in_features=32, out_features=4096, bias=False)
  (act_fn): SiLU()
  (dropout): Dropout(p=0.1, inplace=False)
)
Initialized adapter matrices for language_model.model.layers.4.block_sparse_moe.shared_adapter.2.unit
language_model.model.layers.4.block_sparse_moe.shared_adapter.3.unit MixtralBlockParallelAdapterExpert(
  (adapter_w1): Linear(in_features=4096, out_features=32, bias=False)
  (adapter_w2): Linear(in_features=32, out_features=4096, bias=False)
  (act_fn): SiLU()
  (dropout): Dropout(p=0.1, inplace=False)
)
Initialized adapter matrices for language_model.model.layers.18.block_sparse_moe.shared_adapter.1.unit
language_model.model.layers.18.block_sparse_moe.shared_adapter.2.unit MixtralBlockParallelAdapterExpert(
  (adapter_w1): Linear(in_features=4096, out_features=32, bias=False)
  (adapter_w2): Linear(in_features=32, out_features=4096, bias=False)
  (act_fn): SiLU()
  (dropout): Dropout(p=0.1, inplace=False)
)
Initialized adapter matrices for language_model.model.layers.4.block_sparse_moe.shared_adapter.3.unit
language_model.model.layers.5.block_sparse_moe.shared_adapter.0.unit MixtralBlockParallelAdapterExpert(
  (adapter_w1): Linear(in_features=4096, out_features=32, bias=False)
  (adapter_w2): Linear(in_features=32, out_features=4096, bias=False)
  (act_fn): SiLU()
  (dropout): Dropout(p=0.1, inplace=False)
)
Initialized adapter matrices for language_model.model.layers.18.block_sparse_moe.shared_adapter.2.unit
language_model.model.layers.18.block_sparse_moe.shared_adapter.3.unit MixtralBlockParallelAdapterExpert(
  (adapter_w1): Linear(in_features=4096, out_features=32, bias=False)
  (adapter_w2): Linear(in_features=32, out_features=4096, bias=False)
  (act_fn): SiLU()
  (dropout): Dropout(p=0.1, inplace=False)
)
Initialized adapter matrices for language_model.model.layers.18.block_sparse_moe.shared_adapter.3.unit
language_model.model.layers.19.block_sparse_moe.shared_adapter.0.unit MixtralBlockParallelAdapterExpert(
  (adapter_w1): Linear(in_features=4096, out_features=32, bias=False)
  (adapter_w2): Linear(in_features=32, out_features=4096, bias=False)
  (act_fn): SiLU()
  (dropout): Dropout(p=0.1, inplace=False)
)
Initialized adapter matrices for language_model.model.layers.5.block_sparse_moe.shared_adapter.0.unit
language_model.model.layers.5.block_sparse_moe.shared_adapter.1.unit MixtralBlockParallelAdapterExpert(
  (adapter_w1): Linear(in_features=4096, out_features=32, bias=False)
  (adapter_w2): Linear(in_features=32, out_features=4096, bias=False)
  (act_fn): SiLU()
  (dropout): Dropout(p=0.1, inplace=False)
)
Initialized adapter matrices for language_model.model.layers.19.block_sparse_moe.shared_adapter.0.unit
language_model.model.layers.19.block_sparse_moe.shared_adapter.1.unit MixtralBlockParallelAdapterExpert(
  (adapter_w1): Linear(in_features=4096, out_features=32, bias=False)
  (adapter_w2): Linear(in_features=32, out_features=4096, bias=False)
  (act_fn): SiLU()
  (dropout): Dropout(p=0.1, inplace=False)
)
Initialized adapter matrices for language_model.model.layers.19.block_sparse_moe.shared_adapter.1.unit
language_model.model.layers.19.block_sparse_moe.shared_adapter.2.unit MixtralBlockParallelAdapterExpert(
  (adapter_w1): Linear(in_features=4096, out_features=32, bias=False)
  (adapter_w2): Linear(in_features=32, out_features=4096, bias=False)
  (act_fn): SiLU()
  (dropout): Dropout(p=0.1, inplace=False)
)
Loading checkpoint shards:  55%|█████▌    | 11/20 [00:18<00:17,  1.92s/it]Initialized adapter matrices for language_model.model.layers.19.block_sparse_moe.shared_adapter.2.unit
language_model.model.layers.19.block_sparse_moe.shared_adapter.3.unit MixtralBlockParallelAdapterExpert(
  (adapter_w1): Linear(in_features=4096, out_features=32, bias=False)
  (adapter_w2): Linear(in_features=32, out_features=4096, bias=False)
  (act_fn): SiLU()
  (dropout): Dropout(p=0.1, inplace=False)
)
Initialized adapter matrices for language_model.model.layers.5.block_sparse_moe.shared_adapter.1.unit
language_model.model.layers.5.block_sparse_moe.shared_adapter.2.unit MixtralBlockParallelAdapterExpert(
  (adapter_w1): Linear(in_features=4096, out_features=32, bias=False)
  (adapter_w2): Linear(in_features=32, out_features=4096, bias=False)
  (act_fn): SiLU()
  (dropout): Dropout(p=0.1, inplace=False)
)
Initialized adapter matrices for language_model.model.layers.19.block_sparse_moe.shared_adapter.3.unit
language_model.model.layers.20.block_sparse_moe.shared_adapter.0.unit MixtralBlockParallelAdapterExpert(
  (adapter_w1): Linear(in_features=4096, out_features=32, bias=False)
  (adapter_w2): Linear(in_features=32, out_features=4096, bias=False)
  (act_fn): SiLU()
  (dropout): Dropout(p=0.1, inplace=False)
)
Initialized adapter matrices for language_model.model.layers.20.block_sparse_moe.shared_adapter.0.unit
language_model.model.layers.20.block_sparse_moe.shared_adapter.1.unit MixtralBlockParallelAdapterExpert(
  (adapter_w1): Linear(in_features=4096, out_features=32, bias=False)
  (adapter_w2): Linear(in_features=32, out_features=4096, bias=False)
  (act_fn): SiLU()
  (dropout): Dropout(p=0.1, inplace=False)
)
Initialized adapter matrices for language_model.model.layers.5.block_sparse_moe.shared_adapter.2.unit
language_model.model.layers.5.block_sparse_moe.shared_adapter.3.unit MixtralBlockParallelAdapterExpert(
  (adapter_w1): Linear(in_features=4096, out_features=32, bias=False)
  (adapter_w2): Linear(in_features=32, out_features=4096, bias=False)
  (act_fn): SiLU()
  (dropout): Dropout(p=0.1, inplace=False)
)
Initialized adapter matrices for language_model.model.layers.20.block_sparse_moe.shared_adapter.1.unit
language_model.model.layers.20.block_sparse_moe.shared_adapter.2.unit MixtralBlockParallelAdapterExpert(
  (adapter_w1): Linear(in_features=4096, out_features=32, bias=False)
  (adapter_w2): Linear(in_features=32, out_features=4096, bias=False)
  (act_fn): SiLU()
  (dropout): Dropout(p=0.1, inplace=False)
)
Initialized adapter matrices for language_model.model.layers.5.block_sparse_moe.shared_adapter.3.unit
language_model.model.layers.6.block_sparse_moe.shared_adapter.0.unit MixtralBlockParallelAdapterExpert(
  (adapter_w1): Linear(in_features=4096, out_features=32, bias=False)
  (adapter_w2): Linear(in_features=32, out_features=4096, bias=False)
  (act_fn): SiLU()
  (dropout): Dropout(p=0.1, inplace=False)
)
Initialized adapter matrices for language_model.model.layers.20.block_sparse_moe.shared_adapter.2.unit
language_model.model.layers.20.block_sparse_moe.shared_adapter.3.unit MixtralBlockParallelAdapterExpert(
  (adapter_w1): Linear(in_features=4096, out_features=32, bias=False)
  (adapter_w2): Linear(in_features=32, out_features=4096, bias=False)
  (act_fn): SiLU()
  (dropout): Dropout(p=0.1, inplace=False)
)
Initialized adapter matrices for language_model.model.layers.20.block_sparse_moe.shared_adapter.3.unit
language_model.model.layers.21.block_sparse_moe.shared_adapter.0.unit MixtralBlockParallelAdapterExpert(
  (adapter_w1): Linear(in_features=4096, out_features=32, bias=False)
  (adapter_w2): Linear(in_features=32, out_features=4096, bias=False)
  (act_fn): SiLU()
  (dropout): Dropout(p=0.1, inplace=False)
)
Loading checkpoint shards:  50%|█████     | 10/20 [00:18<00:20,  2.10s/it]Initialized adapter matrices for language_model.model.layers.6.block_sparse_moe.shared_adapter.0.unit
language_model.model.layers.6.block_sparse_moe.shared_adapter.1.unit MixtralBlockParallelAdapterExpert(
  (adapter_w1): Linear(in_features=4096, out_features=32, bias=False)
  (adapter_w2): Linear(in_features=32, out_features=4096, bias=False)
  (act_fn): SiLU()
  (dropout): Dropout(p=0.1, inplace=False)
)
Initialized adapter matrices for language_model.model.layers.21.block_sparse_moe.shared_adapter.0.unit
language_model.model.layers.21.block_sparse_moe.shared_adapter.1.unit MixtralBlockParallelAdapterExpert(
  (adapter_w1): Linear(in_features=4096, out_features=32, bias=False)
  (adapter_w2): Linear(in_features=32, out_features=4096, bias=False)
  (act_fn): SiLU()
  (dropout): Dropout(p=0.1, inplace=False)
)
Initialized adapter matrices for language_model.model.layers.6.block_sparse_moe.shared_adapter.1.unit
language_model.model.layers.6.block_sparse_moe.shared_adapter.2.unit MixtralBlockParallelAdapterExpert(
  (adapter_w1): Linear(in_features=4096, out_features=32, bias=False)
  (adapter_w2): Linear(in_features=32, out_features=4096, bias=False)
  (act_fn): SiLU()
  (dropout): Dropout(p=0.1, inplace=False)
)
Initialized adapter matrices for language_model.model.layers.6.block_sparse_moe.shared_adapter.2.unit
language_model.model.layers.6.block_sparse_moe.shared_adapter.3.unit MixtralBlockParallelAdapterExpert(
  (adapter_w1): Linear(in_features=4096, out_features=32, bias=False)
  (adapter_w2): Linear(in_features=32, out_features=4096, bias=False)
  (act_fn): SiLU()
  (dropout): Dropout(p=0.1, inplace=False)
)
Initialized adapter matrices for language_model.model.layers.6.block_sparse_moe.shared_adapter.3.unit
language_model.model.layers.7.block_sparse_moe.shared_adapter.0.unit MixtralBlockParallelAdapterExpert(
  (adapter_w1): Linear(in_features=4096, out_features=32, bias=False)
  (adapter_w2): Linear(in_features=32, out_features=4096, bias=False)
  (act_fn): SiLU()
  (dropout): Dropout(p=0.1, inplace=False)
)
Initialized adapter matrices for language_model.model.layers.7.block_sparse_moe.shared_adapter.0.unit
language_model.model.layers.7.block_sparse_moe.shared_adapter.1.unit MixtralBlockParallelAdapterExpert(
  (adapter_w1): Linear(in_features=4096, out_features=32, bias=False)
  (adapter_w2): Linear(in_features=32, out_features=4096, bias=False)
  (act_fn): SiLU()
  (dropout): Dropout(p=0.1, inplace=False)
)
Initialized adapter matrices for language_model.model.layers.7.block_sparse_moe.shared_adapter.1.unit
language_model.model.layers.7.block_sparse_moe.shared_adapter.2.unit MixtralBlockParallelAdapterExpert(
  (adapter_w1): Linear(in_features=4096, out_features=32, bias=False)
  (adapter_w2): Linear(in_features=32, out_features=4096, bias=False)
  (act_fn): SiLU()
  (dropout): Dropout(p=0.1, inplace=False)
)
Initialized adapter matrices for language_model.model.layers.7.block_sparse_moe.shared_adapter.2.unit
language_model.model.layers.7.block_sparse_moe.shared_adapter.3.unit MixtralBlockParallelAdapterExpert(
  (adapter_w1): Linear(in_features=4096, out_features=32, bias=False)
  (adapter_w2): Linear(in_features=32, out_features=4096, bias=False)
  (act_fn): SiLU()
  (dropout): Dropout(p=0.1, inplace=False)
)
Initialized adapter matrices for language_model.model.layers.21.block_sparse_moe.shared_adapter.1.unit
language_model.model.layers.21.block_sparse_moe.shared_adapter.2.unit MixtralBlockParallelAdapterExpert(
  (adapter_w1): Linear(in_features=4096, out_features=32, bias=False)
  (adapter_w2): Linear(in_features=32, out_features=4096, bias=False)
  (act_fn): SiLU()
  (dropout): Dropout(p=0.1, inplace=False)
)
Initialized adapter matrices for language_model.model.layers.7.block_sparse_moe.shared_adapter.3.unit
language_model.model.layers.8.block_sparse_moe.shared_adapter.0.unit MixtralBlockParallelAdapterExpert(
  (adapter_w1): Linear(in_features=4096, out_features=32, bias=False)
  (adapter_w2): Linear(in_features=32, out_features=4096, bias=False)
  (act_fn): SiLU()
  (dropout): Dropout(p=0.1, inplace=False)
)
Initialized adapter matrices for language_model.model.layers.21.block_sparse_moe.shared_adapter.2.unit
language_model.model.layers.21.block_sparse_moe.shared_adapter.3.unit MixtralBlockParallelAdapterExpert(
  (adapter_w1): Linear(in_features=4096, out_features=32, bias=False)
  (adapter_w2): Linear(in_features=32, out_features=4096, bias=False)
  (act_fn): SiLU()
  (dropout): Dropout(p=0.1, inplace=False)
)
Initialized adapter matrices for language_model.model.layers.8.block_sparse_moe.shared_adapter.0.unit
language_model.model.layers.8.block_sparse_moe.shared_adapter.1.unit MixtralBlockParallelAdapterExpert(
  (adapter_w1): Linear(in_features=4096, out_features=32, bias=False)
  (adapter_w2): Linear(in_features=32, out_features=4096, bias=False)
  (act_fn): SiLU()
  (dropout): Dropout(p=0.1, inplace=False)
)
Initialized adapter matrices for language_model.model.layers.21.block_sparse_moe.shared_adapter.3.unit
language_model.model.layers.22.block_sparse_moe.shared_adapter.0.unit MixtralBlockParallelAdapterExpert(
  (adapter_w1): Linear(in_features=4096, out_features=32, bias=False)
  (adapter_w2): Linear(in_features=32, out_features=4096, bias=False)
  (act_fn): SiLU()
  (dropout): Dropout(p=0.1, inplace=False)
)
Initialized adapter matrices for language_model.model.layers.8.block_sparse_moe.shared_adapter.1.unit
language_model.model.layers.8.block_sparse_moe.shared_adapter.2.unit MixtralBlockParallelAdapterExpert(
  (adapter_w1): Linear(in_features=4096, out_features=32, bias=False)
  (adapter_w2): Linear(in_features=32, out_features=4096, bias=False)
  (act_fn): SiLU()
  (dropout): Dropout(p=0.1, inplace=False)
)
Initialized adapter matrices for language_model.model.layers.22.block_sparse_moe.shared_adapter.0.unit
language_model.model.layers.22.block_sparse_moe.shared_adapter.1.unit MixtralBlockParallelAdapterExpert(
  (adapter_w1): Linear(in_features=4096, out_features=32, bias=False)
  (adapter_w2): Linear(in_features=32, out_features=4096, bias=False)
  (act_fn): SiLU()
  (dropout): Dropout(p=0.1, inplace=False)
)
Initialized adapter matrices for language_model.model.layers.8.block_sparse_moe.shared_adapter.2.unit
language_model.model.layers.8.block_sparse_moe.shared_adapter.3.unit MixtralBlockParallelAdapterExpert(
  (adapter_w1): Linear(in_features=4096, out_features=32, bias=False)
  (adapter_w2): Linear(in_features=32, out_features=4096, bias=False)
  (act_fn): SiLU()
  (dropout): Dropout(p=0.1, inplace=False)
)
Initialized adapter matrices for language_model.model.layers.22.block_sparse_moe.shared_adapter.1.unit
language_model.model.layers.22.block_sparse_moe.shared_adapter.2.unit MixtralBlockParallelAdapterExpert(
  (adapter_w1): Linear(in_features=4096, out_features=32, bias=False)
  (adapter_w2): Linear(in_features=32, out_features=4096, bias=False)
  (act_fn): SiLU()
  (dropout): Dropout(p=0.1, inplace=False)
)
Initialized adapter matrices for language_model.model.layers.8.block_sparse_moe.shared_adapter.3.unit
language_model.model.layers.9.block_sparse_moe.shared_adapter.0.unit MixtralBlockParallelAdapterExpert(
  (adapter_w1): Linear(in_features=4096, out_features=32, bias=False)
  (adapter_w2): Linear(in_features=32, out_features=4096, bias=False)
  (act_fn): SiLU()
  (dropout): Dropout(p=0.1, inplace=False)
)
Initialized adapter matrices for language_model.model.layers.22.block_sparse_moe.shared_adapter.2.unit
language_model.model.layers.22.block_sparse_moe.shared_adapter.3.unit MixtralBlockParallelAdapterExpert(
  (adapter_w1): Linear(in_features=4096, out_features=32, bias=False)
  (adapter_w2): Linear(in_features=32, out_features=4096, bias=False)
  (act_fn): SiLU()
  (dropout): Dropout(p=0.1, inplace=False)
)
Initialized adapter matrices for language_model.model.layers.9.block_sparse_moe.shared_adapter.0.unit
language_model.model.layers.9.block_sparse_moe.shared_adapter.1.unit MixtralBlockParallelAdapterExpert(
  (adapter_w1): Linear(in_features=4096, out_features=32, bias=False)
  (adapter_w2): Linear(in_features=32, out_features=4096, bias=False)
  (act_fn): SiLU()
  (dropout): Dropout(p=0.1, inplace=False)
)
Initialized adapter matrices for language_model.model.layers.22.block_sparse_moe.shared_adapter.3.unit
language_model.model.layers.23.block_sparse_moe.shared_adapter.0.unit MixtralBlockParallelAdapterExpert(
  (adapter_w1): Linear(in_features=4096, out_features=32, bias=False)
  (adapter_w2): Linear(in_features=32, out_features=4096, bias=False)
  (act_fn): SiLU()
  (dropout): Dropout(p=0.1, inplace=False)
)
Initialized adapter matrices for language_model.model.layers.9.block_sparse_moe.shared_adapter.1.unit
language_model.model.layers.9.block_sparse_moe.shared_adapter.2.unit MixtralBlockParallelAdapterExpert(
  (adapter_w1): Linear(in_features=4096, out_features=32, bias=False)
  (adapter_w2): Linear(in_features=32, out_features=4096, bias=False)
  (act_fn): SiLU()
  (dropout): Dropout(p=0.1, inplace=False)
)
Initialized adapter matrices for language_model.model.layers.23.block_sparse_moe.shared_adapter.0.unit
language_model.model.layers.23.block_sparse_moe.shared_adapter.1.unit MixtralBlockParallelAdapterExpert(
  (adapter_w1): Linear(in_features=4096, out_features=32, bias=False)
  (adapter_w2): Linear(in_features=32, out_features=4096, bias=False)
  (act_fn): SiLU()
  (dropout): Dropout(p=0.1, inplace=False)
)
Initialized adapter matrices for language_model.model.layers.23.block_sparse_moe.shared_adapter.1.unit
language_model.model.layers.23.block_sparse_moe.shared_adapter.2.unit MixtralBlockParallelAdapterExpert(
  (adapter_w1): Linear(in_features=4096, out_features=32, bias=False)
  (adapter_w2): Linear(in_features=32, out_features=4096, bias=False)
  (act_fn): SiLU()
  (dropout): Dropout(p=0.1, inplace=False)
)
Initialized adapter matrices for language_model.model.layers.9.block_sparse_moe.shared_adapter.2.unit
language_model.model.layers.9.block_sparse_moe.shared_adapter.3.unit MixtralBlockParallelAdapterExpert(
  (adapter_w1): Linear(in_features=4096, out_features=32, bias=False)
  (adapter_w2): Linear(in_features=32, out_features=4096, bias=False)
  (act_fn): SiLU()
  (dropout): Dropout(p=0.1, inplace=False)
)
Initialized adapter matrices for language_model.model.layers.23.block_sparse_moe.shared_adapter.2.unit
language_model.model.layers.23.block_sparse_moe.shared_adapter.3.unit MixtralBlockParallelAdapterExpert(
  (adapter_w1): Linear(in_features=4096, out_features=32, bias=False)
  (adapter_w2): Linear(in_features=32, out_features=4096, bias=False)
  (act_fn): SiLU()
  (dropout): Dropout(p=0.1, inplace=False)
)
Initialized adapter matrices for language_model.model.layers.9.block_sparse_moe.shared_adapter.3.unit
language_model.model.layers.10.block_sparse_moe.shared_adapter.0.unit MixtralBlockParallelAdapterExpert(
  (adapter_w1): Linear(in_features=4096, out_features=32, bias=False)
  (adapter_w2): Linear(in_features=32, out_features=4096, bias=False)
  (act_fn): SiLU()
  (dropout): Dropout(p=0.1, inplace=False)
)
Initialized adapter matrices for language_model.model.layers.23.block_sparse_moe.shared_adapter.3.unit
language_model.model.layers.24.block_sparse_moe.shared_adapter.0.unit MixtralBlockParallelAdapterExpert(
  (adapter_w1): Linear(in_features=4096, out_features=32, bias=False)
  (adapter_w2): Linear(in_features=32, out_features=4096, bias=False)
  (act_fn): SiLU()
  (dropout): Dropout(p=0.1, inplace=False)
)
Initialized adapter matrices for language_model.model.layers.10.block_sparse_moe.shared_adapter.0.unit
language_model.model.layers.10.block_sparse_moe.shared_adapter.1.unit MixtralBlockParallelAdapterExpert(
  (adapter_w1): Linear(in_features=4096, out_features=32, bias=False)
  (adapter_w2): Linear(in_features=32, out_features=4096, bias=False)
  (act_fn): SiLU()
  (dropout): Dropout(p=0.1, inplace=False)
)
Initialized adapter matrices for language_model.model.layers.24.block_sparse_moe.shared_adapter.0.unit
language_model.model.layers.24.block_sparse_moe.shared_adapter.1.unit MixtralBlockParallelAdapterExpert(
  (adapter_w1): Linear(in_features=4096, out_features=32, bias=False)
  (adapter_w2): Linear(in_features=32, out_features=4096, bias=False)
  (act_fn): SiLU()
  (dropout): Dropout(p=0.1, inplace=False)
)
Initialized adapter matrices for language_model.model.layers.10.block_sparse_moe.shared_adapter.1.unit
language_model.model.layers.10.block_sparse_moe.shared_adapter.2.unit MixtralBlockParallelAdapterExpert(
  (adapter_w1): Linear(in_features=4096, out_features=32, bias=False)
  (adapter_w2): Linear(in_features=32, out_features=4096, bias=False)
  (act_fn): SiLU()
  (dropout): Dropout(p=0.1, inplace=False)
)
Initialized adapter matrices for language_model.model.layers.10.block_sparse_moe.shared_adapter.2.unit
language_model.model.layers.10.block_sparse_moe.shared_adapter.3.unit MixtralBlockParallelAdapterExpert(
  (adapter_w1): Linear(in_features=4096, out_features=32, bias=False)
  (adapter_w2): Linear(in_features=32, out_features=4096, bias=False)
  (act_fn): SiLU()
  (dropout): Dropout(p=0.1, inplace=False)
)
Initialized adapter matrices for language_model.model.layers.24.block_sparse_moe.shared_adapter.1.unit
language_model.model.layers.24.block_sparse_moe.shared_adapter.2.unit MixtralBlockParallelAdapterExpert(
  (adapter_w1): Linear(in_features=4096, out_features=32, bias=False)
  (adapter_w2): Linear(in_features=32, out_features=4096, bias=False)
  (act_fn): SiLU()
  (dropout): Dropout(p=0.1, inplace=False)
)
Initialized adapter matrices for language_model.model.layers.24.block_sparse_moe.shared_adapter.2.unit
language_model.model.layers.24.block_sparse_moe.shared_adapter.3.unit MixtralBlockParallelAdapterExpert(
  (adapter_w1): Linear(in_features=4096, out_features=32, bias=False)
  (adapter_w2): Linear(in_features=32, out_features=4096, bias=False)
  (act_fn): SiLU()
  (dropout): Dropout(p=0.1, inplace=False)
)
Initialized adapter matrices for language_model.model.layers.10.block_sparse_moe.shared_adapter.3.unit
language_model.model.layers.11.block_sparse_moe.shared_adapter.0.unit MixtralBlockParallelAdapterExpert(
  (adapter_w1): Linear(in_features=4096, out_features=32, bias=False)
  (adapter_w2): Linear(in_features=32, out_features=4096, bias=False)
  (act_fn): SiLU()
  (dropout): Dropout(p=0.1, inplace=False)
)
Initialized adapter matrices for language_model.model.layers.24.block_sparse_moe.shared_adapter.3.unit
language_model.model.layers.25.block_sparse_moe.shared_adapter.0.unitInitialized adapter matrices for language_model.model.layers.11.block_sparse_moe.shared_adapter.0.unit
language_model.model.layers.11.block_sparse_moe.shared_adapter.1.unit MixtralBlockParallelAdapterExpert(
  (adapter_w1): Linear(in_features=4096, out_features=32, bias=False)
  (adapter_w2): Linear(in_features=32, out_features=4096, bias=False)
  (act_fn): SiLU()
  (dropout): Dropout(p=0.1, inplace=False)
)
 MixtralBlockParallelAdapterExpert(
  (adapter_w1): Linear(in_features=4096, out_features=32, bias=False)
  (adapter_w2): Linear(in_features=32, out_features=4096, bias=False)
  (act_fn): SiLU()
  (dropout): Dropout(p=0.1, inplace=False)
)
Initialized adapter matrices for language_model.model.layers.25.block_sparse_moe.shared_adapter.0.unit
language_model.model.layers.25.block_sparse_moe.shared_adapter.1.unit MixtralBlockParallelAdapterExpert(
  (adapter_w1): Linear(in_features=4096, out_features=32, bias=False)
  (adapter_w2): Linear(in_features=32, out_features=4096, bias=False)
  (act_fn): SiLU()
  (dropout): Dropout(p=0.1, inplace=False)
)
Initialized adapter matrices for language_model.model.layers.11.block_sparse_moe.shared_adapter.1.unit
language_model.model.layers.11.block_sparse_moe.shared_adapter.2.unit MixtralBlockParallelAdapterExpert(
  (adapter_w1): Linear(in_features=4096, out_features=32, bias=False)
  (adapter_w2): Linear(in_features=32, out_features=4096, bias=False)
  (act_fn): SiLU()
  (dropout): Dropout(p=0.1, inplace=False)
)
Initialized adapter matrices for language_model.model.layers.25.block_sparse_moe.shared_adapter.1.unit
language_model.model.layers.25.block_sparse_moe.shared_adapter.2.unit MixtralBlockParallelAdapterExpert(
  (adapter_w1): Linear(in_features=4096, out_features=32, bias=False)
  (adapter_w2): Linear(in_features=32, out_features=4096, bias=False)
  (act_fn): SiLU()
  (dropout): Dropout(p=0.1, inplace=False)
)
Initialized adapter matrices for language_model.model.layers.25.block_sparse_moe.shared_adapter.2.unit
language_model.model.layers.25.block_sparse_moe.shared_adapter.3.unit MixtralBlockParallelAdapterExpert(
  (adapter_w1): Linear(in_features=4096, out_features=32, bias=False)
  (adapter_w2): Linear(in_features=32, out_features=4096, bias=False)
  (act_fn): SiLU()
  (dropout): Dropout(p=0.1, inplace=False)
)
Initialized adapter matrices for language_model.model.layers.11.block_sparse_moe.shared_adapter.2.unit
language_model.model.layers.11.block_sparse_moe.shared_adapter.3.unit MixtralBlockParallelAdapterExpert(
  (adapter_w1): Linear(in_features=4096, out_features=32, bias=False)
  (adapter_w2): Linear(in_features=32, out_features=4096, bias=False)
  (act_fn): SiLU()
  (dropout): Dropout(p=0.1, inplace=False)
)
Initialized adapter matrices for language_model.model.layers.25.block_sparse_moe.shared_adapter.3.unit
language_model.model.layers.26.block_sparse_moe.shared_adapter.0.unit MixtralBlockParallelAdapterExpert(
  (adapter_w1): Linear(in_features=4096, out_features=32, bias=False)
  (adapter_w2): Linear(in_features=32, out_features=4096, bias=False)
  (act_fn): SiLU()
  (dropout): Dropout(p=0.1, inplace=False)
)
Initialized adapter matrices for language_model.model.layers.26.block_sparse_moe.shared_adapter.0.unit
language_model.model.layers.26.block_sparse_moe.shared_adapter.1.unit MixtralBlockParallelAdapterExpert(
  (adapter_w1): Linear(in_features=4096, out_features=32, bias=False)
  (adapter_w2): Linear(in_features=32, out_features=4096, bias=False)
  (act_fn): SiLU()
  (dropout): Dropout(p=0.1, inplace=False)
)
Initialized adapter matrices for language_model.model.layers.11.block_sparse_moe.shared_adapter.3.unit
language_model.model.layers.12.block_sparse_moe.shared_adapter.0.unit MixtralBlockParallelAdapterExpert(
  (adapter_w1): Linear(in_features=4096, out_features=32, bias=False)
  (adapter_w2): Linear(in_features=32, out_features=4096, bias=False)
  (act_fn): SiLU()
  (dropout): Dropout(p=0.1, inplace=False)
)
Initialized adapter matrices for language_model.model.layers.26.block_sparse_moe.shared_adapter.1.unit
language_model.model.layers.26.block_sparse_moe.shared_adapter.2.unit MixtralBlockParallelAdapterExpert(
  (adapter_w1): Linear(in_features=4096, out_features=32, bias=False)
  (adapter_w2): Linear(in_features=32, out_features=4096, bias=False)
  (act_fn): SiLU()
  (dropout): Dropout(p=0.1, inplace=False)
)
Initialized adapter matrices for language_model.model.layers.26.block_sparse_moe.shared_adapter.2.unit
language_model.model.layers.26.block_sparse_moe.shared_adapter.3.unit MixtralBlockParallelAdapterExpert(
  (adapter_w1): Linear(in_features=4096, out_features=32, bias=False)
  (adapter_w2): Linear(in_features=32, out_features=4096, bias=False)
  (act_fn): SiLU()
  (dropout): Dropout(p=0.1, inplace=False)
)
Initialized adapter matrices for language_model.model.layers.12.block_sparse_moe.shared_adapter.0.unit
language_model.model.layers.12.block_sparse_moe.shared_adapter.1.unit MixtralBlockParallelAdapterExpert(
  (adapter_w1): Linear(in_features=4096, out_features=32, bias=False)
  (adapter_w2): Linear(in_features=32, out_features=4096, bias=False)
  (act_fn): SiLU()
  (dropout): Dropout(p=0.1, inplace=False)
)
Initialized adapter matrices for language_model.model.layers.26.block_sparse_moe.shared_adapter.3.unit
language_model.model.layers.27.block_sparse_moe.shared_adapter.0.unit MixtralBlockParallelAdapterExpert(
  (adapter_w1): Linear(in_features=4096, out_features=32, bias=False)
  (adapter_w2): Linear(in_features=32, out_features=4096, bias=False)
  (act_fn): SiLU()
  (dropout): Dropout(p=0.1, inplace=False)
)
Initialized adapter matrices for language_model.model.layers.12.block_sparse_moe.shared_adapter.1.unit
language_model.model.layers.12.block_sparse_moe.shared_adapter.2.unit MixtralBlockParallelAdapterExpert(
  (adapter_w1): Linear(in_features=4096, out_features=32, bias=False)
  (adapter_w2): Linear(in_features=32, out_features=4096, bias=False)
  (act_fn): SiLU()
  (dropout): Dropout(p=0.1, inplace=False)
)
Initialized adapter matrices for language_model.model.layers.27.block_sparse_moe.shared_adapter.0.unit
language_model.model.layers.27.block_sparse_moe.shared_adapter.1.unit MixtralBlockParallelAdapterExpert(
  (adapter_w1): Linear(in_features=4096, out_features=32, bias=False)
  (adapter_w2): Linear(in_features=32, out_features=4096, bias=False)
  (act_fn): SiLU()
  (dropout): Dropout(p=0.1, inplace=False)
)
Initialized adapter matrices for language_model.model.layers.27.block_sparse_moe.shared_adapter.1.unit
language_model.model.layers.27.block_sparse_moe.shared_adapter.2.unit MixtralBlockParallelAdapterExpert(
  (adapter_w1): Linear(in_features=4096, out_features=32, bias=False)
  (adapter_w2): Linear(in_features=32, out_features=4096, bias=False)
  (act_fn): SiLU()
  (dropout): Dropout(p=0.1, inplace=False)
)
Initialized adapter matrices for language_model.model.layers.12.block_sparse_moe.shared_adapter.2.unit
language_model.model.layers.12.block_sparse_moe.shared_adapter.3.unit MixtralBlockParallelAdapterExpert(
  (adapter_w1): Linear(in_features=4096, out_features=32, bias=False)
  (adapter_w2): Linear(in_features=32, out_features=4096, bias=False)
  (act_fn): SiLU()
  (dropout): Dropout(p=0.1, inplace=False)
)
Loading checkpoint shards: 100%|██████████| 20/20 [00:29<00:00,  1.57s/it]Initialized adapter matrices for language_model.model.layers.27.block_sparse_moe.shared_adapter.2.unit
language_model.model.layers.27.block_sparse_moe.shared_adapter.3.unit MixtralBlockParallelAdapterExpert(
  (adapter_w1): Linear(in_features=4096, out_features=32, bias=False)
  (adapter_w2): Linear(in_features=32, out_features=4096, bias=False)
  (act_fn): SiLU()
  (dropout): Dropout(p=0.1, inplace=False)
)Loading checkpoint shards: 100%|██████████| 20/20 [00:29<00:00,  1.46s/it]

Some weights of LlavaForConditionalGeneration were not initialized from the model checkpoint at /home/vault/b207dd/b207dd11/llava-mixtral/llava-mixtral-pretrained-2/ and are newly initialized: ['language_model.mod
…
.model.layers.9.block_sparse_moe.shared_adapter.3.unit.adapter_w1.weight', 'language_model.model.layers.9.block_sparse_moe.shared_adapter.3.unit.adapter_w2.weight']
You should probably TRAIN this model on a down-stream task to be able to use it for predictions and inference.
Initialized adapter matrices for language_model.model.layers.27.block_sparse_moe.shared_adapter.3.unit
Initialized adapter matrices for language_model.model.layers.12.block_sparse_moe.shared_adapter.3.unit
language_model.model.layers.28.block_sparse_moe.shared_adapter.0.unit MixtralBlockParallelAdapterExpert(
  (adapter_w1): Linear(in_features=4096, out_features=32, bias=False)
  (adapter_w2): Linear(in_features=32, out_features=4096, bias=False)
  (act_fn): SiLU()
  (dropout): Dropout(p=0.1, inplace=False)
)
language_model.model.layers.13.block_sparse_moe.shared_adapter.0.unit MixtralBlockParallelAdapterExpert(
  (adapter_w1): Linear(in_features=4096, out_features=32, bias=False)
  (adapter_w2): Linear(in_features=32, out_features=4096, bias=False)
  (act_fn): SiLU()
  (dropout): Dropout(p=0.1, inplace=False)
)
Initialized adapter matrices for language_model.model.layers.28.block_sparse_moe.shared_adapter.0.unit
language_model.model.layers.28.block_sparse_moe.shared_adapter.1.unit MixtralBlockParallelAdapterExpert(
  (adapter_w1): Linear(in_features=4096, out_features=32, bias=False)
  (adapter_w2): Linear(in_features=32, out_features=4096, bias=False)
  (act_fn): SiLU()
  (dropout): Dropout(p=0.1, inplace=False)
)
Initialized adapter matrices for language_model.model.layers.13.block_sparse_moe.shared_adapter.0.unit
language_model.model.layers.13.block_sparse_moe.shared_adapter.1.unit MixtralBlockParallelAdapterExpert(
  (adapter_w1): Linear(in_features=4096, out_features=32, bias=False)
  (adapter_w2): Linear(in_features=32, out_features=4096, bias=False)
  (act_fn): SiLU()
  (dropout): Dropout(p=0.1, inplace=False)
)
Initialized adapter matrices for language_model.model.layers.28.block_sparse_moe.shared_adapter.1.unit
language_model.model.layers.28.block_sparse_moe.shared_adapter.2.unit MixtralBlockParallelAdapterExpert(
  (adapter_w1): Linear(in_features=4096, out_features=32, bias=False)
  (adapter_w2): Linear(in_features=32, out_features=4096, bias=False)
  (act_fn): SiLU()
  (dropout): Dropout(p=0.1, inplace=False)
)
Initialized adapter matrices for language_model.model.layers.28.block_sparse_moe.shared_adapter.2.unit
language_model.model.layers.28.block_sparse_moe.shared_adapter.3.unit MixtralBlockParallelAdapterExpert(
  (adapter_w1): Linear(in_features=4096, out_features=32, bias=False)
  (adapter_w2): Linear(in_features=32, out_features=4096, bias=False)
  (act_fn): SiLU()
  (dropout): Dropout(p=0.1, inplace=False)
)
Initialized adapter matrices for language_model.model.layers.13.block_sparse_moe.shared_adapter.1.unit
language_model.model.layers.13.block_sparse_moe.shared_adapter.2.unit MixtralBlockParallelAdapterExpert(
  (adapter_w1): Linear(in_features=4096, out_features=32, bias=False)
  (adapter_w2): Linear(in_features=32, out_features=4096, bias=False)
  (act_fn): SiLU()
  (dropout): Dropout(p=0.1, inplace=False)
)
Initialized adapter matrices for language_model.model.layers.28.block_sparse_moe.shared_adapter.3.unit
language_model.model.layers.29.block_sparse_moe.shared_adapter.0.unit MixtralBlockParallelAdapterExpert(
  (adapter_w1): Linear(in_features=4096, out_features=32, bias=False)
  (adapter_w2): Linear(in_features=32, out_features=4096, bias=False)
  (act_fn): SiLU()
  (dropout): Dropout(p=0.1, inplace=False)
)
Initialized adapter matrices for language_model.model.layers.29.block_sparse_moe.shared_adapter.0.unit
language_model.model.layers.29.block_sparse_moe.shared_adapter.1.unit MixtralBlockParallelAdapterExpert(
  (adapter_w1): Linear(in_features=4096, out_features=32, bias=False)
  (adapter_w2): Linear(in_features=32, out_features=4096, bias=False)
  (act_fn): SiLU()
  (dropout): Dropout(p=0.1, inplace=False)
)
Initialized adapter matrices for language_model.model.layers.13.block_sparse_moe.shared_adapter.2.unit
language_model.model.layers.13.block_sparse_moe.shared_adapter.3.unit MixtralBlockParallelAdapterExpert(
  (adapter_w1): Linear(in_features=4096, out_features=32, bias=False)
  (adapter_w2): Linear(in_features=32, out_features=4096, bias=False)
  (act_fn): SiLU()
  (dropout): Dropout(p=0.1, inplace=False)
)
Initialized adapter matrices for language_model.model.layers.29.block_sparse_moe.shared_adapter.1.unit
language_model.model.layers.29.block_sparse_moe.shared_adapter.2.unit MixtralBlockParallelAdapterExpert(
  (adapter_w1): Linear(in_features=4096, out_features=32, bias=False)
  (adapter_w2): Linear(in_features=32, out_features=4096, bias=False)
  (act_fn): SiLU()
  (dropout): Dropout(p=0.1, inplace=False)
)
Initialized adapter matrices for language_model.model.layers.29.block_sparse_moe.shared_adapter.2.unit
language_model.model.layers.29.block_sparse_moe.shared_adapter.3.unit MixtralBlockParallelAdapterExpert(
  (adapter_w1): Linear(in_features=4096, out_features=32, bias=False)
  (adapter_w2): Linear(in_features=32, out_features=4096, bias=False)
  (act_fn): SiLU()
  (dropout): Dropout(p=0.1, inplace=False)
)
Initialized adapter matrices for language_model.model.layers.29.block_sparse_moe.shared_adapter.3.unit
language_model.model.layers.30.block_sparse_moe.shared_adapter.0.unit MixtralBlockParallelAdapterExpert(
  (adapter_w1): Linear(in_features=4096, out_features=32, bias=False)
  (adapter_w2): Linear(in_features=32, out_features=4096, bias=False)
  (act_fn): SiLU()
  (dropout): Dropout(p=0.1, inplace=False)
)
Initialized adapter matrices for language_model.model.layers.13.block_sparse_moe.shared_adapter.3.unit
language_model.model.layers.14.block_sparse_moe.shared_adapter.0.unit MixtralBlockParallelAdapterExpert(
  (adapter_w1): Linear(in_features=4096, out_features=32, bias=False)
  (adapter_w2): Linear(in_features=32, out_features=4096, bias=False)
  (act_fn): SiLU()
  (dropout): Dropout(p=0.1, inplace=False)
)
Initialized adapter matrices for language_model.model.layers.30.block_sparse_moe.shared_adapter.0.unit
language_model.model.layers.30.block_sparse_moe.shared_adapter.1.unit MixtralBlockParallelAdapterExpert(
  (adapter_w1): Linear(in_features=4096, out_features=32, bias=False)
  (adapter_w2): Linear(in_features=32, out_features=4096, bias=False)
  (act_fn): SiLU()
  (dropout): Dropout(p=0.1, inplace=False)
)
Initialized adapter matrices for language_model.model.layers.30.block_sparse_moe.shared_adapter.1.unit
language_model.model.layers.30.block_sparse_moe.shared_adapter.2.unit MixtralBlockParallelAdapterExpert(
  (adapter_w1): Linear(in_features=4096, out_features=32, bias=False)
  (adapter_w2): Linear(in_features=32, out_features=4096, bias=False)
  (act_fn): SiLU()
  (dropout): Dropout(p=0.1, inplace=False)
)
Initialized adapter matrices for language_model.model.layers.30.block_sparse_moe.shared_adapter.2.unit
language_model.model.layers.30.block_sparse_moe.shared_adapter.3.unit MixtralBlockParallelAdapterExpert(
  (adapter_w1): Linear(in_features=4096, out_features=32, bias=False)
  (adapter_w2): Linear(in_features=32, out_features=4096, bias=False)
  (act_fn): SiLU()
  (dropout): Dropout(p=0.1, inplace=False)
)
Initialized adapter matrices for language_model.model.layers.14.block_sparse_moe.shared_adapter.0.unit
language_model.model.layers.14.block_sparse_moe.shared_adapter.1.unit MixtralBlockParallelAdapterExpert(
  (adapter_w1): Linear(in_features=4096, out_features=32, bias=False)
  (adapter_w2): Linear(in_features=32, out_features=4096, bias=False)
  (act_fn): SiLU()
  (dropout): Dropout(p=0.1, inplace=False)
)
Initialized adapter matrices for language_model.model.layers.30.block_sparse_moe.shared_adapter.3.unit
language_model.model.layers.31.block_sparse_moe.shared_adapter.0.unit MixtralBlockParallelAdapterExpert(
  (adapter_w1): Linear(in_features=4096, out_features=32, bias=False)
  (adapter_w2): Linear(in_features=32, out_features=4096, bias=False)
  (act_fn): SiLU()
  (dropout): Dropout(p=0.1, inplace=False)
)
Initialized adapter matrices for language_model.model.layers.31.block_sparse_moe.shared_adapter.0.unit
language_model.model.layers.31.block_sparse_moe.shared_adapter.1.unit MixtralBlockParallelAdapterExpert(
  (adapter_w1): Linear(in_features=4096, out_features=32, bias=False)
  (adapter_w2): Linear(in_features=32, out_features=4096, bias=False)
  (act_fn): SiLU()
  (dropout): Dropout(p=0.1, inplace=False)
)
Initialized adapter matrices for language_model.model.layers.14.block_sparse_moe.shared_adapter.1.unit
language_model.model.layers.14.block_sparse_moe.shared_adapter.2.unit MixtralBlockParallelAdapterExpert(
  (adapter_w1): Linear(in_features=4096, out_features=32, bias=False)
  (adapter_w2): Linear(in_features=32, out_features=4096, bias=False)
  (act_fn): SiLU()
  (dropout): Dropout(p=0.1, inplace=False)
)
Initialized adapter matrices for language_model.model.layers.31.block_sparse_moe.shared_adapter.1.unit
language_model.model.layers.31.block_sparse_moe.shared_adapter.2.unit MixtralBlockParallelAdapterExpert(
  (adapter_w1): Linear(in_features=4096, out_features=32, bias=False)
  (adapter_w2): Linear(in_features=32, out_features=4096, bias=False)
  (act_fn): SiLU()
  (dropout): Dropout(p=0.1, inplace=False)
)
Initialized adapter matrices for language_model.model.layers.31.block_sparse_moe.shared_adapter.2.unit
language_model.model.layers.31.block_sparse_moe.shared_adapter.3.unit MixtralBlockParallelAdapterExpert(
  (adapter_w1): Linear(in_features=4096, out_features=32, bias=False)
  (adapter_w2): Linear(in_features=32, out_features=4096, bias=False)
  (act_fn): SiLU()
  (dropout): Dropout(p=0.1, inplace=False)
)
Initialized adapter matrices for language_model.model.layers.14.block_sparse_moe.shared_adapter.2.unit
language_model.model.layers.14.block_sparse_moe.shared_adapter.3.unit MixtralBlockParallelAdapterExpert(
  (adapter_w1): Linear(in_features=4096, out_features=32, bias=False)
  (adapter_w2): Linear(in_features=32, out_features=4096, bias=False)
  (act_fn): SiLU()
  (dropout): Dropout(p=0.1, inplace=False)
)
Initialized adapter matrices for language_model.model.layers.31.block_sparse_moe.shared_adapter.3.unit
Initialized adapter matrices for language_model.model.layers.14.block_sparse_moe.shared_adapter.3.unit
language_model.model.layers.15.block_sparse_moe.shared_adapter.0.unit MixtralBlockParallelAdapterExpert(
  (adapter_w1): Linear(in_features=4096, out_features=32, bias=False)
  (adapter_w2): Linear(in_features=32, out_features=4096, bias=False)
  (act_fn): SiLU()
  (dropout): Dropout(p=0.1, inplace=False)
)
Convert trainable params: 33554432 || all params: 47060850688 || trainable%: 0.07
Initialized adapter matrices for language_model.model.layers.15.block_sparse_moe.shared_adapter.0.unit
language_model.model.layers.15.block_sparse_moe.shared_adapter.1.unit MixtralBlockParallelAdapterExpert(
  (adapter_w1): Linear(in_features=4096, out_features=32, bias=False)
  (adapter_w2): Linear(in_features=32, out_features=4096, bias=False)
  (act_fn): SiLU()
  (dropout): Dropout(p=0.1, inplace=False)
)
Print trainable params: 54534144 || all params: 47060850688 || trainable%: 0.12
 ######################### trying init params ######################### 
language_model.model.layers.0.block_sparse_moe.shared_adapter.0.unit MixtralBlockParallelAdapterExpert(
  (adapter_w1): Linear(in_features=4096, out_features=32, bias=False)
  (adapter_w2): Linear(in_features=32, out_features=4096, bias=False)
  (act_fn): SiLU()
  (dropout): Dropout(p=0.1, inplace=False)
)
Initialized adapter matrices for language_model.model.layers.15.block_sparse_moe.shared_adapter.1.unit
language_model.model.layers.15.block_sparse_moe.shared_adapter.2.unit MixtralBlockParallelAdapterExpert(
  (adapter_w1): Linear(in_features=4096, out_features=32, bias=False)
  (adapter_w2): Linear(in_features=32, out_features=4096, bias=False)
  (act_fn): SiLU()
  (dropout): Dropout(p=0.1, inplace=False)
)
Initialized adapter matrices for language_model.model.layers.0.block_sparse_moe.shared_adapter.0.unit
language_model.model.layers.0.block_sparse_moe.shared_adapter.1.unit MixtralBlockParallelAdapterExpert(
  (adapter_w1): Linear(in_features=4096, out_features=32, bias=False)
  (adapter_w2): Linear(in_features=32, out_features=4096, bias=False)
  (act_fn): SiLU()
  (dropout): Dropout(p=0.1, inplace=False)
)
Initialized adapter matrices for language_model.model.layers.0.block_sparse_moe.shared_adapter.1.unit
language_model.model.layers.0.block_sparse_moe.shared_adapter.2.unit MixtralBlockParallelAdapterExpert(
  (adapter_w1): Linear(in_features=4096, out_features=32, bias=False)
  (adapter_w2): Linear(in_features=32, out_features=4096, bias=False)
  (act_fn): SiLU()
  (dropout): Dropout(p=0.1, inplace=False)
)
Initialized adapter matrices for language_model.model.layers.15.block_sparse_moe.shared_adapter.2.unit
language_model.model.layers.15.block_sparse_moe.shared_adapter.3.unit MixtralBlockParallelAdapterExpert(
  (adapter_w1): Linear(in_features=4096, out_features=32, bias=False)
  (adapter_w2): Linear(in_features=32, out_features=4096, bias=False)
  (act_fn): SiLU()
  (dropout): Dropout(p=0.1, inplace=False)
)
Initialized adapter matrices for language_model.model.layers.0.block_sparse_moe.shared_adapter.2.unit
language_model.model.layers.0.block_sparse_moe.shared_adapter.3.unit MixtralBlockParallelAdapterExpert(
  (adapter_w1): Linear(in_features=4096, out_features=32, bias=False)
  (adapter_w2): Linear(in_features=32, out_features=4096, bias=False)
  (act_fn): SiLU()
  (dropout): Dropout(p=0.1, inplace=False)
)
Initialized adapter matrices for language_model.model.layers.0.block_sparse_moe.shared_adapter.3.unit
language_model.model.layers.1.block_sparse_moe.shared_adapter.0.unit MixtralBlockParallelAdapterExpert(
  (adapter_w1): Linear(in_features=4096, out_features=32, bias=False)
  (adapter_w2): Linear(in_features=32, out_features=4096, bias=False)
  (act_fn): SiLU()
  (dropout): Dropout(p=0.1, inplace=False)
)
Initialized adapter matrices for language_model.model.layers.15.block_sparse_moe.shared_adapter.3.unit
language_model.model.layers.16.block_sparse_moe.shared_adapter.0.unit MixtralBlockParallelAdapterExpert(
  (adapter_w1): Linear(in_features=4096, out_features=32, bias=False)
  (adapter_w2): Linear(in_features=32, out_features=4096, bias=False)
  (act_fn): SiLU()
  (dropout): Dropout(p=0.1, inplace=False)
)
Initialized adapter matrices for language_model.model.layers.1.block_sparse_moe.shared_adapter.0.unit
language_model.model.layers.1.block_sparse_moe.shared_adapter.1.unit MixtralBlockParallelAdapterExpert(
  (adapter_w1): Linear(in_features=4096, out_features=32, bias=False)
  (adapter_w2): Linear(in_features=32, out_features=4096, bias=False)
  (act_fn): SiLU()
  (dropout): Dropout(p=0.1, inplace=False)
)
Initialized adapter matrices for language_model.model.layers.1.block_sparse_moe.shared_adapter.1.unit
language_model.model.layers.1.block_sparse_moe.shared_adapter.2.unit MixtralBlockParallelAdapterExpert(
  (adapter_w1): Linear(in_features=4096, out_features=32, bias=False)
  (adapter_w2): Linear(in_features=32, out_features=4096, bias=False)
  (act_fn): SiLU()
  (dropout): Dropout(p=0.1, inplace=False)
)
Initialized adapter matrices for language_model.model.layers.1.block_sparse_moe.shared_adapter.2.unit
language_model.model.layers.1.block_sparse_moe.shared_adapter.3.unit MixtralBlockParallelAdapterExpert(
  (adapter_w1): Linear(in_features=4096, out_features=32, bias=False)
  (adapter_w2): Linear(in_features=32, out_features=4096, bias=False)
  (act_fn): SiLU()
  (dropout): Dropout(p=0.1, inplace=False)
)
Initialized adapter matrices for language_model.model.layers.1.block_sparse_moe.shared_adapter.3.unit
language_model.model.layers.2.block_sparse_moe.shared_adapter.0.unit MixtralBlockParallelAdapterExpert(
  (adapter_w1): Linear(in_features=4096, out_features=32, bias=False)
  (adapter_w2): Linear(in_features=32, out_features=4096, bias=False)
  (act_fn): SiLU()
  (dropout): Dropout(p=0.1, inplace=False)
)
Initialized adapter matrices for language_model.model.layers.16.block_sparse_moe.shared_adapter.0.unit
language_model.model.layers.16.block_sparse_moe.shared_adapter.1.unit MixtralBlockParallelAdapterExpert(
  (adapter_w1): Linear(in_features=4096, out_features=32, bias=False)
  (adapter_w2): Linear(in_features=32, out_features=4096, bias=False)
  (act_fn): SiLU()
  (dropout): Dropout(p=0.1, inplace=False)
)
Initialized adapter matrices for language_model.model.layers.2.block_sparse_moe.shared_adapter.0.unit
language_model.model.layers.2.block_sparse_moe.shared_adapter.1.unit MixtralBlockParallelAdapterExpert(
  (adapter_w1): Linear(in_features=4096, out_features=32, bias=False)
  (adapter_w2): Linear(in_features=32, out_features=4096, bias=False)
  (act_fn): SiLU()
  (dropout): Dropout(p=0.1, inplace=False)
)
Initialized adapter matrices for language_model.model.layers.2.block_sparse_moe.shared_adapter.1.unit
language_model.model.layers.2.block_sparse_moe.shared_adapter.2.unit MixtralBlockParallelAdapterExpert(
  (adapter_w1): Linear(in_features=4096, out_features=32, bias=False)
  (adapter_w2): Linear(in_features=32, out_features=4096, bias=False)
  (act_fn): SiLU()
  (dropout): Dropout(p=0.1, inplace=False)
)
Initialized adapter matrices for language_model.model.layers.2.block_sparse_moe.shared_adapter.2.unit
language_model.model.layers.2.block_sparse_moe.shared_adapter.3.unit MixtralBlockParallelAdapterExpert(
  (adapter_w1): Linear(in_features=4096, out_features=32, bias=False)
  (adapter_w2): Linear(in_features=32, out_features=4096, bias=False)
  (act_fn): SiLU()
  (dropout): Dropout(p=0.1, inplace=False)
)
Initialized adapter matrices for language_model.model.layers.2.block_sparse_moe.shared_adapter.3.unit
language_model.model.layers.3.block_sparse_moe.shared_adapter.0.unit MixtralBlockParallelAdapterExpert(
  (adapter_w1): Linear(in_features=4096, out_features=32, bias=False)
  (adapter_w2): Linear(in_features=32, out_features=4096, bias=False)
  (act_fn): SiLU()
  (dropout): Dropout(p=0.1, inplace=False)
)
Initialized adapter matrices for language_model.model.layers.3.block_sparse_moe.shared_adapter.0.unit
language_model.model.layers.3.block_sparse_moe.shared_adapter.1.unit MixtralBlockParallelAdapterExpert(
  (adapter_w1): Linear(in_features=4096, out_features=32, bias=False)
  (adapter_w2): Linear(in_features=32, out_features=4096, bias=False)
  (act_fn): SiLU()
  (dropout): Dropout(p=0.1, inplace=False)
)
Initialized adapter matrices for language_model.model.layers.16.block_sparse_moe.shared_adapter.1.unit
language_model.model.layers.16.block_sparse_moe.shared_adapter.2.unit MixtralBlockParallelAdapterExpert(
  (adapter_w1): Linear(in_features=4096, out_features=32, bias=False)
  (adapter_w2): Linear(in_features=32, out_features=4096, bias=False)
  (act_fn): SiLU()
  (dropout): Dropout(p=0.1, inplace=False)
)
Initialized adapter matrices for language_model.model.layers.3.block_sparse_moe.shared_adapter.1.unit
language_model.model.layers.3.block_sparse_moe.shared_adapter.2.unit MixtralBlockParallelAdapterExpert(
  (adapter_w1): Linear(in_features=4096, out_features=32, bias=False)
  (adapter_w2): Linear(in_features=32, out_features=4096, bias=False)
  (act_fn): SiLU()
  (dropout): Dropout(p=0.1, inplace=False)
)
Initialized adapter matrices for language_model.model.layers.3.block_sparse_moe.shared_adapter.2.unit
language_model.model.layers.3.block_sparse_moe.shared_adapter.3.unit MixtralBlockParallelAdapterExpert(
  (adapter_w1): Linear(in_features=4096, out_features=32, bias=False)
  (adapter_w2): Linear(in_features=32, out_features=4096, bias=False)
  (act_fn): SiLU()
  (dropout): Dropout(p=0.1, inplace=False)
)
Initialized adapter matrices for language_model.model.layers.3.block_sparse_moe.shared_adapter.3.unit
language_model.model.layers.4.block_sparse_moe.shared_adapter.0.unit MixtralBlockParallelAdapterExpert(
  (adapter_w1): Linear(in_features=4096, out_features=32, bias=False)
  (adapter_w2): Linear(in_features=32, out_features=4096, bias=False)
  (act_fn): SiLU()
  (dropout): Dropout(p=0.1, inplace=False)
)
Initialized adapter matrices for language_model.model.layers.4.block_sparse_moe.shared_adapter.0.unit
language_model.model.layers.4.block_sparse_moe.shared_adapter.1.unit MixtralBlockParallelAdapterExpert(
  (adapter_w1): Linear(in_features=4096, out_features=32, bias=False)
  (adapter_w2): Linear(in_features=32, out_features=4096, bias=False)
  (act_fn): SiLU()
  (dropout): Dropout(p=0.1, inplace=False)
)
Initialized adapter matrices for language_model.model.layers.4.block_sparse_moe.shared_adapter.1.unit
language_model.model.layers.4.block_sparse_moe.shared_adapter.2.unit MixtralBlockParallelAdapterExpert(
  (adapter_w1): Linear(in_features=4096, out_features=32, bias=False)
  (adapter_w2): Linear(in_features=32, out_features=4096, bias=False)
  (act_fn): SiLU()
  (dropout): Dropout(p=0.1, inplace=False)
)
Initialized adapter matrices for language_model.model.layers.16.block_sparse_moe.shared_adapter.2.unit
language_model.model.layers.16.block_sparse_moe.shared_adapter.3.unit MixtralBlockParallelAdapterExpert(
  (adapter_w1): Linear(in_features=4096, out_features=32, bias=False)
  (adapter_w2): Linear(in_features=32, out_features=4096, bias=False)
  (act_fn): SiLU()
  (dropout): Dropout(p=0.1, inplace=False)
)
Initialized adapter matrices for language_model.model.layers.4.block_sparse_moe.shared_adapter.2.unit
language_model.model.layers.4.block_sparse_moe.shared_adapter.3.unit MixtralBlockParallelAdapterExpert(
  (adapter_w1): Linear(in_features=4096, out_features=32, bias=False)
  (adapter_w2): Linear(in_features=32, out_features=4096, bias=False)
  (act_fn): SiLU()
  (dropout): Dropout(p=0.1, inplace=False)
)
Initialized adapter matrices for language_model.model.layers.4.block_sparse_moe.shared_adapter.3.unit
language_model.model.layers.5.block_sparse_moe.shared_adapter.0.unit MixtralBlockParallelAdapterExpert(
  (adapter_w1): Linear(in_features=4096, out_features=32, bias=False)
  (adapter_w2): Linear(in_features=32, out_features=4096, bias=False)
  (act_fn): SiLU()
  (dropout): Dropout(p=0.1, inplace=False)
)
Initialized adapter matrices for language_model.model.layers.16.block_sparse_moe.shared_adapter.3.unit
language_model.model.layers.17.block_sparse_moe.shared_adapter.0.unit MixtralBlockParallelAdapterExpert(
  (adapter_w1): Linear(in_features=4096, out_features=32, bias=False)
  (adapter_w2): Linear(in_features=32, out_features=4096, bias=False)
  (act_fn): SiLU()
  (dropout): Dropout(p=0.1, inplace=False)
)
Initialized adapter matrices for language_model.model.layers.5.block_sparse_moe.shared_adapter.0.unit
language_model.model.layers.5.block_sparse_moe.shared_adapter.1.unit MixtralBlockParallelAdapterExpert(
  (adapter_w1): Linear(in_features=4096, out_features=32, bias=False)
  (adapter_w2): Linear(in_features=32, out_features=4096, bias=False)
  (act_fn): SiLU()
  (dropout): Dropout(p=0.1, inplace=False)
)
Initialized adapter matrices for language_model.model.layers.5.block_sparse_moe.shared_adapter.1.unit
language_model.model.layers.5.block_sparse_moe.shared_adapter.2.unit MixtralBlockParallelAdapterExpert(
  (adapter_w1): Linear(in_features=4096, out_features=32, bias=False)
  (adapter_w2): Linear(in_features=32, out_features=4096, bias=False)
  (act_fn): SiLU()
  (dropout): Dropout(p=0.1, inplace=False)
)
Initialized adapter matrices for language_model.model.layers.5.block_sparse_moe.shared_adapter.2.unit
language_model.model.layers.5.block_sparse_moe.shared_adapter.3.unit MixtralBlockParallelAdapterExpert(
  (adapter_w1): Linear(in_features=4096, out_features=32, bias=False)
  (adapter_w2): Linear(in_features=32, out_features=4096, bias=False)
  (act_fn): SiLU()
  (dropout): Dropout(p=0.1, inplace=False)
)
Initialized adapter matrices for language_model.model.layers.5.block_sparse_moe.shared_adapter.3.unit
language_model.model.layers.6.block_sparse_moe.shared_adapter.0.unit MixtralBlockParallelAdapterExpert(
  (adapter_w1): Linear(in_features=4096, out_features=32, bias=False)
  (adapter_w2): Linear(in_features=32, out_features=4096, bias=False)
  (act_fn): SiLU()
  (dropout): Dropout(p=0.1, inplace=False)
)
Initialized adapter matrices for language_model.model.layers.17.block_sparse_moe.shared_adapter.0.unit
language_model.model.layers.17.block_sparse_moe.shared_adapter.1.unit MixtralBlockParallelAdapterExpert(
  (adapter_w1): Linear(in_features=4096, out_features=32, bias=False)
  (adapter_w2): Linear(in_features=32, out_features=4096, bias=False)
  (act_fn): SiLU()
  (dropout): Dropout(p=0.1, inplace=False)
)
Initialized adapter matrices for language_model.model.layers.6.block_sparse_moe.shared_adapter.0.unit
language_model.model.layers.6.block_sparse_moe.shared_adapter.1.unit MixtralBlockParallelAdapterExpert(
  (adapter_w1): Linear(in_features=4096, out_features=32, bias=False)
  (adapter_w2): Linear(in_features=32, out_features=4096, bias=False)
  (act_fn): SiLU()
  (dropout): Dropout(p=0.1, inplace=False)
)
Initialized adapter matrices for language_model.model.layers.6.block_sparse_moe.shared_adapter.1.unit
language_model.model.layers.6.block_sparse_moe.shared_adapter.2.unit MixtralBlockParallelAdapterExpert(
  (adapter_w1): Linear(in_features=4096, out_features=32, bias=False)
  (adapter_w2): Linear(in_features=32, out_features=4096, bias=False)
  (act_fn): SiLU()
  (dropout): Dropout(p=0.1, inplace=False)
)
Initialized adapter matrices for language_model.model.layers.17.block_sparse_moe.shared_adapter.1.unit
language_model.model.layers.17.block_sparse_moe.shared_adapter.2.unit MixtralBlockParallelAdapterExpert(
  (adapter_w1): Linear(in_features=4096, out_features=32, bias=False)
  (adapter_w2): Linear(in_features=32, out_features=4096, bias=False)
  (act_fn): SiLU()
  (dropout): Dropout(p=0.1, inplace=False)
)
Initialized adapter matrices for language_model.model.layers.17.block_sparse_moe.shared_adapter.2.unit
language_model.model.layers.17.block_sparse_moe.shared_adapter.3.unit MixtralBlockParallelAdapterExpert(
  (adapter_w1): Linear(in_features=4096, out_features=32, bias=False)
  (adapter_w2): Linear(in_features=32, out_features=4096, bias=False)
  (act_fn): SiLU()
  (dropout): Dropout(p=0.1, inplace=False)
)
Initialized adapter matrices for language_model.model.layers.6.block_sparse_moe.shared_adapter.2.unit
language_model.model.layers.6.block_sparse_moe.shared_adapter.3.unit MixtralBlockParallelAdapterExpert(
  (adapter_w1): Linear(in_features=4096, out_features=32, bias=False)
  (adapter_w2): Linear(in_features=32, out_features=4096, bias=False)
  (act_fn): SiLU()
  (dropout): Dropout(p=0.1, inplace=False)
)
Initialized adapter matrices for language_model.model.layers.6.block_sparse_moe.shared_adapter.3.unit
language_model.model.layers.7.block_sparse_moe.shared_adapter.0.unit MixtralBlockParallelAdapterExpert(
  (adapter_w1): Linear(in_features=4096, out_features=32, bias=False)
  (adapter_w2): Linear(in_features=32, out_features=4096, bias=False)
…
Initialized adapter matrices for language_model.model.layers.22.block_sparse_moe.shared_adapter.1.unit
Initialized adapter matrices for language_model.model.layers.11.block_sparse_moe.shared_adapter.1.unitlanguage_model.model.layers.22.block_sparse_moe.shared_adapter.2.unit 
language_model.model.layers.11.block_sparse_moe.shared_adapter.2.unitMixtralBlockParallelAdapterExpert(
  (adapter_w1): Linear(in_features=4096, out_features=32, bias=False)
  (adapter_w2): Linear(in_features=32, out_features=4096, bias=False)
  (act_fn): SiLU()
  (dropout): Dropout(p=0.1, inplace=False)
)
 MixtralBlockParallelAdapterExpert(
  (adapter_w1): Linear(in_features=4096, out_features=32, bias=False)
  (adapter_w2): Linear(in_features=32, out_features=4096, bias=False)
  (act_fn): SiLU()
  (dropout): Dropout(p=0.1, inplace=False)
)
Initialized adapter matrices for language_model.model.layers.22.block_sparse_moe.shared_adapter.2.unit
language_model.model.layers.22.block_sparse_moe.shared_adapter.3.unit MixtralBlockParallelAdapterExpert(
  (adapter_w1): Linear(in_features=4096, out_features=32, bias=False)
  (adapter_w2): Linear(in_features=32, out_features=4096, bias=False)
  (act_fn): SiLU()
  (dropout): Dropout(p=0.1, inplace=False)
)
Initialized adapter matrices for language_model.model.layers.11.block_sparse_moe.shared_adapter.2.unit
language_model.model.layers.11.block_sparse_moe.shared_adapter.3.unit MixtralBlockParallelAdapterExpert(
  (adapter_w1): Linear(in_features=4096, out_features=32, bias=False)
  (adapter_w2): Linear(in_features=32, out_features=4096, bias=False)
  (act_fn): SiLU()
  (dropout): Dropout(p=0.1, inplace=False)
)
Initialized adapter matrices for language_model.model.layers.11.block_sparse_moe.shared_adapter.3.unit
language_model.model.layers.12.block_sparse_moe.shared_adapter.0.unit MixtralBlockParallelAdapterExpert(
  (adapter_w1): Linear(in_features=4096, out_features=32, bias=False)
  (adapter_w2): Linear(in_features=32, out_features=4096, bias=False)
  (act_fn): SiLU()
  (dropout): Dropout(p=0.1, inplace=False)
)
Initialized adapter matrices for language_model.model.layers.22.block_sparse_moe.shared_adapter.3.unit
language_model.model.layers.23.block_sparse_moe.shared_adapter.0.unit MixtralBlockParallelAdapterExpert(
  (adapter_w1): Linear(in_features=4096, out_features=32, bias=False)
  (adapter_w2): Linear(in_features=32, out_features=4096, bias=False)
  (act_fn): SiLU()
  (dropout): Dropout(p=0.1, inplace=False)
)
Initialized adapter matrices for language_model.model.layers.12.block_sparse_moe.shared_adapter.0.unit
language_model.model.layers.12.block_sparse_moe.shared_adapter.1.unit MixtralBlockParallelAdapterExpert(
  (adapter_w1): Linear(in_features=4096, out_features=32, bias=False)
  (adapter_w2): Linear(in_features=32, out_features=4096, bias=False)
  (act_fn): SiLU()
  (dropout): Dropout(p=0.1, inplace=False)
)
Initialized adapter matrices for language_model.model.layers.23.block_sparse_moe.shared_adapter.0.unit
language_model.model.layers.23.block_sparse_moe.shared_adapter.1.unit MixtralBlockParallelAdapterExpert(
  (adapter_w1): Linear(in_features=4096, out_features=32, bias=False)
  (adapter_w2): Linear(in_features=32, out_features=4096, bias=False)
  (act_fn): SiLU()
  (dropout): Dropout(p=0.1, inplace=False)
)
Initialized adapter matrices for language_model.model.layers.12.block_sparse_moe.shared_adapter.1.unit
language_model.model.layers.12.block_sparse_moe.shared_adapter.2.unit MixtralBlockParallelAdapterExpert(
  (adapter_w1): Linear(in_features=4096, out_features=32, bias=False)
  (adapter_w2): Linear(in_features=32, out_features=4096, bias=False)
  (act_fn): SiLU()
  (dropout): Dropout(p=0.1, inplace=False)
)
Initialized adapter matrices for language_model.model.layers.23.block_sparse_moe.shared_adapter.1.unit
language_model.model.layers.23.block_sparse_moe.shared_adapter.2.unit MixtralBlockParallelAdapterExpert(
  (adapter_w1): Linear(in_features=4096, out_features=32, bias=False)
  (adapter_w2): Linear(in_features=32, out_features=4096, bias=False)
  (act_fn): SiLU()
  (dropout): Dropout(p=0.1, inplace=False)
)
Initialized adapter matrices for language_model.model.layers.12.block_sparse_moe.shared_adapter.2.unit
language_model.model.layers.12.block_sparse_moe.shared_adapter.3.unit MixtralBlockParallelAdapterExpert(
  (adapter_w1): Linear(in_features=4096, out_features=32, bias=False)
  (adapter_w2): Linear(in_features=32, out_features=4096, bias=False)
  (act_fn): SiLU()
  (dropout): Dropout(p=0.1, inplace=False)
)
Initialized adapter matrices for language_model.model.layers.12.block_sparse_moe.shared_adapter.3.unit
language_model.model.layers.13.block_sparse_moe.shared_adapter.0.unit MixtralBlockParallelAdapterExpert(
  (adapter_w1): Linear(in_features=4096, out_features=32, bias=False)
  (adapter_w2): Linear(in_features=32, out_features=4096, bias=False)
  (act_fn): SiLU()
  (dropout): Dropout(p=0.1, inplace=False)
)
Initialized adapter matrices for language_model.model.layers.23.block_sparse_moe.shared_adapter.2.unit
language_model.model.layers.23.block_sparse_moe.shared_adapter.3.unit MixtralBlockParallelAdapterExpert(
  (adapter_w1): Linear(in_features=4096, out_features=32, bias=False)
  (adapter_w2): Linear(in_features=32, out_features=4096, bias=False)
  (act_fn): SiLU()
  (dropout): Dropout(p=0.1, inplace=False)
)
Initialized adapter matrices for language_model.model.layers.13.block_sparse_moe.shared_adapter.0.unit
language_model.model.layers.13.block_sparse_moe.shared_adapter.1.unit MixtralBlockParallelAdapterExpert(
  (adapter_w1): Linear(in_features=4096, out_features=32, bias=False)
  (adapter_w2): Linear(in_features=32, out_features=4096, bias=False)
  (act_fn): SiLU()
  (dropout): Dropout(p=0.1, inplace=False)
)
Initialized adapter matrices for language_model.model.layers.23.block_sparse_moe.shared_adapter.3.unit
language_model.model.layers.24.block_sparse_moe.shared_adapter.0.unit MixtralBlockParallelAdapterExpert(
  (adapter_w1): Linear(in_features=4096, out_features=32, bias=False)
  (adapter_w2): Linear(in_features=32, out_features=4096, bias=False)
  (act_fn): SiLU()
  (dropout): Dropout(p=0.1, inplace=False)
)
Initialized adapter matrices for language_model.model.layers.13.block_sparse_moe.shared_adapter.1.unit
language_model.model.layers.13.block_sparse_moe.shared_adapter.2.unit MixtralBlockParallelAdapterExpert(
  (adapter_w1): Linear(in_features=4096, out_features=32, bias=False)
  (adapter_w2): Linear(in_features=32, out_features=4096, bias=False)
  (act_fn): SiLU()
  (dropout): Dropout(p=0.1, inplace=False)
)
Initialized adapter matrices for language_model.model.layers.24.block_sparse_moe.shared_adapter.0.unit
language_model.model.layers.24.block_sparse_moe.shared_adapter.1.unit MixtralBlockParallelAdapterExpert(
  (adapter_w1): Linear(in_features=4096, out_features=32, bias=False)
  (adapter_w2): Linear(in_features=32, out_features=4096, bias=False)
  (act_fn): SiLU()
  (dropout): Dropout(p=0.1, inplace=False)
)
Initialized adapter matrices for language_model.model.layers.13.block_sparse_moe.shared_adapter.2.unit
language_model.model.layers.13.block_sparse_moe.shared_adapter.3.unit MixtralBlockParallelAdapterExpert(
  (adapter_w1): Linear(in_features=4096, out_features=32, bias=False)
  (adapter_w2): Linear(in_features=32, out_features=4096, bias=False)
  (act_fn): SiLU()
  (dropout): Dropout(p=0.1, inplace=False)
)
Initialized adapter matrices for language_model.model.layers.24.block_sparse_moe.shared_adapter.1.unit
language_model.model.layers.24.block_sparse_moe.shared_adapter.2.unit MixtralBlockParallelAdapterExpert(
  (adapter_w1): Linear(in_features=4096, out_features=32, bias=False)
  (adapter_w2): Linear(in_features=32, out_features=4096, bias=False)
  (act_fn): SiLU()
  (dropout): Dropout(p=0.1, inplace=False)
)
Initialized adapter matrices for language_model.model.layers.13.block_sparse_moe.shared_adapter.3.unit
language_model.model.layers.14.block_sparse_moe.shared_adapter.0.unit MixtralBlockParallelAdapterExpert(
  (adapter_w1): Linear(in_features=4096, out_features=32, bias=False)
  (adapter_w2): Linear(in_features=32, out_features=4096, bias=False)
  (act_fn): SiLU()
  (dropout): Dropout(p=0.1, inplace=False)
)
Initialized adapter matrices for language_model.model.layers.14.block_sparse_moe.shared_adapter.0.unit
language_model.model.layers.14.block_sparse_moe.shared_adapter.1.unit MixtralBlockParallelAdapterExpert(
  (adapter_w1): Linear(in_features=4096, out_features=32, bias=False)
  (adapter_w2): Linear(in_features=32, out_features=4096, bias=False)
  (act_fn): SiLU()
  (dropout): Dropout(p=0.1, inplace=False)
)
Initialized adapter matrices for language_model.model.layers.14.block_sparse_moe.shared_adapter.1.unit
language_model.model.layers.14.block_sparse_moe.shared_adapter.2.unit MixtralBlockParallelAdapterExpert(
  (adapter_w1): Linear(in_features=4096, out_features=32, bias=False)
  (adapter_w2): Linear(in_features=32, out_features=4096, bias=False)
  (act_fn): SiLU()
  (dropout): Dropout(p=0.1, inplace=False)
)
Initialized adapter matrices for language_model.model.layers.14.block_sparse_moe.shared_adapter.2.unit
language_model.model.layers.14.block_sparse_moe.shared_adapter.3.unitInitialized adapter matrices for language_model.model.layers.24.block_sparse_moe.shared_adapter.2.unit 
MixtralBlockParallelAdapterExpert(
  (adapter_w1): Linear(in_features=4096, out_features=32, bias=False)
  (adapter_w2): Linear(in_features=32, out_features=4096, bias=False)
  (act_fn): SiLU()
  (dropout): Dropout(p=0.1, inplace=False)
)
language_model.model.layers.24.block_sparse_moe.shared_adapter.3.unit MixtralBlockParallelAdapterExpert(
  (adapter_w1): Linear(in_features=4096, out_features=32, bias=False)
  (adapter_w2): Linear(in_features=32, out_features=4096, bias=False)
  (act_fn): SiLU()
  (dropout): Dropout(p=0.1, inplace=False)
)
Initialized adapter matrices for language_model.model.layers.14.block_sparse_moe.shared_adapter.3.unit
Initialized adapter matrices for language_model.model.layers.24.block_sparse_moe.shared_adapter.3.unit
language_model.model.layers.15.block_sparse_moe.shared_adapter.0.unitlanguage_model.model.layers.25.block_sparse_moe.shared_adapter.0.unit MixtralBlockParallelAdapterExpert(
  (adapter_w1): Linear(in_features=4096, out_features=32, bias=False)
  (adapter_w2): Linear(in_features=32, out_features=4096, bias=False)
  (act_fn): SiLU()
  (dropout): Dropout(p=0.1, inplace=False)
)
 MixtralBlockParallelAdapterExpert(
  (adapter_w1): Linear(in_features=4096, out_features=32, bias=False)
  (adapter_w2): Linear(in_features=32, out_features=4096, bias=False)
  (act_fn): SiLU()
  (dropout): Dropout(p=0.1, inplace=False)
)
Initialized adapter matrices for language_model.model.layers.25.block_sparse_moe.shared_adapter.0.unit
language_model.model.layers.25.block_sparse_moe.shared_adapter.1.unit MixtralBlockParallelAdapterExpert(
  (adapter_w1): Linear(in_features=4096, out_features=32, bias=False)
  (adapter_w2): Linear(in_features=32, out_features=4096, bias=False)
  (act_fn): SiLU()
  (dropout): Dropout(p=0.1, inplace=False)
)Initialized adapter matrices for language_model.model.layers.15.block_sparse_moe.shared_adapter.0.unit

language_model.model.layers.15.block_sparse_moe.shared_adapter.1.unit MixtralBlockParallelAdapterExpert(
  (adapter_w1): Linear(in_features=4096, out_features=32, bias=False)
  (adapter_w2): Linear(in_features=32, out_features=4096, bias=False)
  (act_fn): SiLU()
  (dropout): Dropout(p=0.1, inplace=False)
)
Initialized adapter matrices for language_model.model.layers.25.block_sparse_moe.shared_adapter.1.unit
language_model.model.layers.25.block_sparse_moe.shared_adapter.2.unit MixtralBlockParallelAdapterExpert(
  (adapter_w1): Linear(in_features=4096, out_features=32, bias=False)
  (adapter_w2): Linear(in_features=32, out_features=4096, bias=False)
  (act_fn): SiLU()
  (dropout): Dropout(p=0.1, inplace=False)
)
Initialized adapter matrices for language_model.model.layers.15.block_sparse_moe.shared_adapter.1.unit
language_model.model.layers.15.block_sparse_moe.shared_adapter.2.unit MixtralBlockParallelAdapterExpert(
  (adapter_w1): Linear(in_features=4096, out_features=32, bias=False)
  (adapter_w2): Linear(in_features=32, out_features=4096, bias=False)
  (act_fn): SiLU()
  (dropout): Dropout(p=0.1, inplace=False)
)
Initialized adapter matrices for language_model.model.layers.25.block_sparse_moe.shared_adapter.2.unit
language_model.model.layers.25.block_sparse_moe.shared_adapter.3.unit MixtralBlockParallelAdapterExpert(
  (adapter_w1): Linear(in_features=4096, out_features=32, bias=False)
  (adapter_w2): Linear(in_features=32, out_features=4096, bias=False)
  (act_fn): SiLU()
  (dropout): Dropout(p=0.1, inplace=False)
)
Initialized adapter matrices for language_model.model.layers.15.block_sparse_moe.shared_adapter.2.unit
language_model.model.layers.15.block_sparse_moe.shared_adapter.3.unit MixtralBlockParallelAdapterExpert(
  (adapter_w1): Linear(in_features=4096, out_features=32, bias=False)
  (adapter_w2): Linear(in_features=32, out_features=4096, bias=False)
  (act_fn): SiLU()
  (dropout): Dropout(p=0.1, inplace=False)
)
Initialized adapter matrices for language_model.model.layers.25.block_sparse_moe.shared_adapter.3.unit
language_model.model.layers.26.block_sparse_moe.shared_adapter.0.unit MixtralBlockParallelAdapterExpert(
  (adapter_w1): Linear(in_features=4096, out_features=32, bias=False)
  (adapter_w2): Linear(in_features=32, out_features=4096, bias=False)
  (act_fn): SiLU()
  (dropout): Dropout(p=0.1, inplace=False)
)
Initialized adapter matrices for language_model.model.layers.15.block_sparse_moe.shared_adapter.3.unit
language_model.model.layers.16.block_sparse_moe.shared_adapter.0.unit MixtralBlockParallelAdapterExpert(
  (adapter_w1): Linear(in_features=4096, out_features=32, bias=False)
  (adapter_w2): Linear(in_features=32, out_features=4096, bias=False)
  (act_fn): SiLU()
  (dropout): Dropout(p=0.1, inplace=False)
)
Initialized adapter matrices for language_model.model.layers.26.block_sparse_moe.shared_adapter.0.unit
language_model.model.layers.26.block_sparse_moe.shared_adapter.1.unit MixtralBlockParallelAdapterExpert(
  (adapter_w1): Linear(in_features=4096, out_features=32, bias=False)
  (adapter_w2): Linear(in_features=32, out_features=4096, bias=False)
  (act_fn): SiLU()
  (dropout): Dropout(p=0.1, inplace=False)
)
Initialized adapter matrices for language_model.model.layers.16.block_sparse_moe.shared_adapter.0.unit
language_model.model.layers.16.block_sparse_moe.shared_adapter.1.unit MixtralBlockParallelAdapterExpert(
  (adapter_w1): Linear(in_features=4096, out_features=32, bias=False)
  (adapter_w2): Linear(in_features=32, out_features=4096, bias=False)
  (act_fn): SiLU()
  (dropout): Dropout(p=0.1, inplace=False)
)
Initialized adapter matrices for language_model.model.layers.26.block_sparse_moe.shared_adapter.1.unit
language_model.model.layers.26.block_sparse_moe.shared_adapter.2.unit MixtralBlockParallelAdapterExpert(
  (adapter_w1): Linear(in_features=4096, out_features=32, bias=False)
  (adapter_w2): Linear(in_features=32, out_features=4096, bias=False)
  (act_fn): SiLU()
  (dropout): Dropout(p=0.1, inplace=False)
)
Initialized adapter matrices for language_model.model.layers.26.block_sparse_moe.shared_adapter.2.unit
language_model.model.layers.26.block_sparse_moe.shared_adapter.3.unit MixtralBlockParallelAdapterExpert(
  (adapter_w1): Linear(in_features=4096, out_features=32, bias=False)
  (adapter_w2): Linear(in_features=32, out_features=4096, bias=False)
  (act_fn): SiLU()
  (dropout): Dropout(p=0.1, inplace=False)
)
Initialized adapter matrices for language_model.model.layers.16.block_sparse_moe.shared_adapter.1.unit
language_model.model.layers.16.block_sparse_moe.shared_adapter.2.unit MixtralBlockParallelAdapterExpert(
  (adapter_w1): Linear(in_features=4096, out_features=32, bias=False)
  (adapter_w2): Linear(in_features=32, out_features=4096, bias=False)
  (act_fn): SiLU()
  (dropout): Dropout(p=0.1, inplace=False)
)
Initialized adapter matrices for language_model.model.layers.26.block_sparse_moe.shared_adapter.3.unit
language_model.model.layers.27.block_sparse_moe.shared_adapter.0.unit MixtralBlockParallelAdapterExpert(
  (adapter_w1): Linear(in_features=4096, out_features=32, bias=False)
  (adapter_w2): Linear(in_features=32, out_features=4096, bias=False)
  (act_fn): SiLU()
  (dropout): Dropout(p=0.1, inplace=False)
)
Initialized adapter matrices for language_model.model.layers.16.block_sparse_moe.shared_adapter.2.unit
language_model.model.layers.16.block_sparse_moe.shared_adapter.3.unit MixtralBlockParallelAdapterExpert(
  (adapter_w1): Linear(in_features=4096, out_features=32, bias=False)
  (adapter_w2): Linear(in_features=32, out_features=4096, bias=False)
  (act_fn): SiLU()
  (dropout): Dropout(p=0.1, inplace=False)
)
Initialized adapter matrices for language_model.model.layers.27.block_sparse_moe.shared_adapter.0.unit
language_model.model.layers.27.block_sparse_moe.shared_adapter.1.unit MixtralBlockParallelAdapterExpert(
  (adapter_w1): Linear(in_features=4096, out_features=32, bias=False)
  (adapter_w2): Linear(in_features=32, out_features=4096, bias=False)
  (act_fn): SiLU()
  (dropout): Dropout(p=0.1, inplace=False)
)
Initialized adapter matrices for language_model.model.layers.27.block_sparse_moe.shared_adapter.1.unit
language_model.model.layers.27.block_sparse_moe.shared_adapter.2.unit MixtralBlockParallelAdapterExpert(
  (adapter_w1): Linear(in_features=4096, out_features=32, bias=False)
  (adapter_w2): Linear(in_features=32, out_features=4096, bias=False)
  (act_fn): SiLU()
  (dropout): Dropout(p=0.1, inplace=False)
)
Initialized adapter matrices for language_model.model.layers.16.block_sparse_moe.shared_adapter.3.unit
language_model.model.layers.17.block_sparse_moe.shared_adapter.0.unit MixtralBlockParallelAdapterExpert(
  (adapter_w1): Linear(in_features=4096, out_features=32, bias=False)
  (adapter_w2): Linear(in_features=32, out_features=4096, bias=False)
  (act_fn): SiLU()
  (dropout): Dropout(p=0.1, inplace=False)
)
Initialized adapter matrices for language_model.model.layers.27.block_sparse_moe.shared_adapter.2.unit
language_model.model.layers.27.block_sparse_moe.shared_adapter.3.unit MixtralBlockParallelAdapterExpert(
  (adapter_w1): Linear(in_features=4096, out_features=32, bias=False)
  (adapter_w2): Linear(in_features=32, out_features=4096, bias=False)
  (act_fn): SiLU()
  (dropout): Dropout(p=0.1, inplace=False)
)
Initialized adapter matrices for language_model.model.layers.27.block_sparse_moe.shared_adapter.3.unit
language_model.model.layers.28.block_sparse_moe.shared_adapter.0.unit MixtralBlockParallelAdapterExpert(
  (adapter_w1): Linear(in_features=4096, out_features=32, bias=False)
  (adapter_w2): Linear(in_features=32, out_features=4096, bias=False)
  (act_fn): SiLU()
  (dropout): Dropout(p=0.1, inplace=False)
)
Initialized adapter matrices for language_model.model.layers.17.block_sparse_moe.shared_adapter.0.unit
Initialized adapter matrices for language_model.model.layers.28.block_sparse_moe.shared_adapter.0.unitlanguage_model.model.layers.17.block_sparse_moe.shared_adapter.1.unit MixtralBlockParallelAdapterExpert(
  (adapter_w1): Linear(in_features=4096, out_features=32, bias=False)
  (adapter_w2): Linear(in_features=32, out_features=4096, bias=False)
  (act_fn): SiLU()
  (dropout): Dropout(p=0.1, inplace=False)
)
language_model.model.layers.28.block_sparse_moe.shared_adapter.1.unit
 MixtralBlockParallelAdapterExpert(
  (adapter_w1): Linear(in_features=4096, out_features=32, bias=False)
  (adapter_w2): Linear(in_features=32, out_features=4096, bias=False)
  (act_fn): SiLU()
  (dropout): Dropout(p=0.1, inplace=False)
)
Initialized adapter matrices for language_model.model.layers.28.block_sparse_moe.shared_adapter.1.unit
language_model.model.layers.28.block_sparse_moe.shared_adapter.2.unit MixtralBlockParallelAdapterExpert(
  (adapter_w1): Linear(in_features=4096, out_features=32, bias=False)
  (adapter_w2): Linear(in_features=32, out_features=4096, bias=False)
  (act_fn): SiLU()
  (dropout): Dropout(p=0.1, inplace=False)
)
Initialized adapter matrices for language_model.model.layers.17.block_sparse_moe.shared_adapter.1.unit
language_model.model.layers.17.block_sparse_moe.shared_adapter.2.unit MixtralBlockParallelAdapterExpert(
  (adapter_w1): Linear(in_features=4096, out_features=32, bias=False)
  (adapter_w2): Linear(in_features=32, out_features=4096, bias=False)
  (act_fn): SiLU()
  (dropout): Dropout(p=0.1, inplace=False)
)
Initialized adapter matrices for language_model.model.layers.28.block_sparse_moe.shared_adapter.2.unit
language_model.model.layers.28.block_sparse_moe.shared_adapter.3.unit MixtralBlockParallelAdapterExpert(
  (adapter_w1): Linear(in_features=4096, out_features=32, bias=False)
  (adapter_w2): Linear(in_features=32, out_features=4096, bias=False)
  (act_fn): SiLU()
  (dropout): Dropout(p=0.1, inplace=False)
)
Initialized adapter matrices for language_model.model.layers.28.block_sparse_moe.shared_adapter.3.unit
language_model.model.layers.29.block_sparse_moe.shared_adapter.0.unit MixtralBlockParallelAdapterExpert(
  (adapter_w1): Linear(in_features=4096, out_features=32, bias=False)
  (adapter_w2): Linear(in_features=32, out_features=4096, bias=False)
  (act_fn): SiLU()
  (dropout): Dropout(p=0.1, inplace=False)
)
Initialized adapter matrices for language_model.model.layers.29.block_sparse_moe.shared_adapter.0.unit
language_model.model.layers.29.block_sparse_moe.shared_adapter.1.unit MixtralBlockParallelAdapterExpert(
  (adapter_w1): Linear(in_features=4096, out_features=32, bias=False)
  (adapter_w2): Linear(in_features=32, out_features=4096, bias=False)
  (act_fn): SiLU()
  (dropout): Dropout(p=0.1, inplace=False)
)
Initialized adapter matrices for language_model.model.layers.17.block_sparse_moe.shared_adapter.2.unit
language_model.model.layers.17.block_sparse_moe.shared_adapter.3.unit MixtralBlockParallelAdapterExpert(
  (adapter_w1): Linear(in_features=4096, out_features=32, bias=False)
  (adapter_w2): Linear(in_features=32, out_features=4096, bias=False)
  (act_fn): SiLU()
  (dropout): Dropout(p=0.1, inplace=False)
)
Initialized adapter matrices for language_model.model.layers.29.block_sparse_moe.shared_adapter.1.unit
language_model.model.layers.29.block_sparse_moe.shared_adapter.2.unit MixtralBlockParallelAdapterExpert(
  (adapter_w1): Linear(in_features=4096, out_features=32, bias=False)
  (adapter_w2): Linear(in_features=32, out_features=4096, bias=False)
  (act_fn): SiLU()
  (dropout): Dropout(p=0.1, inplace=False)
)
Initialized adapter matrices for language_model.model.layers.29.block_sparse_moe.shared_adapter.2.unit
language_model.model.layers.29.block_sparse_moe.shared_adapter.3.unit MixtralBlockParallelAdapterExpert(
  (adapter_w1): Linear(in_features=4096, out_features=32, bias=False)
  (adapter_w2): Linear(in_features=32, out_features=4096, bias=False)
  (act_fn): SiLU()
  (dropout): Dropout(p=0.1, inplace=False)
)
Initialized adapter matrices for language_model.model.layers.17.block_sparse_moe.shared_adapter.3.unit
language_model.model.layers.18.block_sparse_moe.shared_adapter.0.unit MixtralBlockParallelAdapterExpert(
  (adapter_w1): Linear(in_features=4096, out_features=32, bias=False)
  (adapter_w2): Linear(in_features=32, out_features=4096, bias=False)
  (act_fn): SiLU()
  (dropout): Dropout(p=0.1, inplace=False)
)
Initialized adapter matrices for language_model.model.layers.29.block_sparse_moe.shared_adapter.3.unit
language_model.model.layers.30.block_sparse_moe.shared_adapter.0.unit MixtralBlockParallelAdapterExpert(
  (adapter_w1): Linear(in_features=4096, out_features=32, bias=False)
  (adapter_w2): Linear(in_features=32, out_features=4096, bias=False)
  (act_fn): SiLU()
  (dropout): Dropout(p=0.1, inplace=False)
)
Initialized adapter matrices for language_model.model.layers.18.block_sparse_moe.shared_adapter.0.unit
language_model.model.layers.18.block_sparse_moe.shared_adapter.1.unit MixtralBlockParallelAdapterExpert(
  (adapter_w1): Linear(in_features=4096, out_features=32, bias=False)
  (adapter_w2): Linear(in_features=32, out_features=4096, bias=False)
  (act_fn): SiLU()
  (dropout): Dropout(p=0.1, inplace=False)
)
Initialized adapter matrices for language_model.model.layers.30.block_sparse_moe.shared_adapter.0.unit
language_model.model.layers.30.block_sparse_moe.shared_adapter.1.unit MixtralBlockParallelAdapterExpert(
  (adapter_w1): Linear(in_features=4096, out_features=32, bias=False)
  (adapter_w2): Linear(in_features=32, out_features=4096, bias=False)
  (act_fn): SiLU()
  (dropout): Dropout(p=0.1, inplace=False)
)
Initialized adapter matrices for language_model.model.layers.18.block_sparse_moe.shared_adapter.1.unit
language_model.model.layers.18.block_sparse_moe.shared_adapter.2.unit MixtralBlockParallelAdapterExpert(
  (adapter_w1): Linear(in_features=4096, out_features=32, bias=False)
  (adapter_w2): Linear(in_features=32, out_features=4096, bias=False)
  (act_fn): SiLU()
  (dropout): Dropout(p=0.1, inplace=False)
)
Initialized adapter matrices for language_model.model.layers.30.block_sparse_moe.shared_adapter.1.unit
language_model.model.layers.30.block_sparse_moe.shared_adapter.2.unit MixtralBlockParallelAdapterExpert(
  (adapter_w1): Linear(in_features=4096, out_features=32, bias=False)
  (adapter_w2): Linear(in_features=32, out_features=4096, bias=False)
  (act_fn): SiLU()
  (dropout): Dropout(p=0.1, inplace=False)
)
Initialized adapter matrices for language_model.model.layers.18.block_sparse_moe.shared_adapter.2.unit
language_model.model.layers.18.block_sparse_moe.shared_adapter.3.unit MixtralBlockParallelAdapterExpert(
  (adapter_w1): Linear(in_features=4096, out_features=32, bias=False)
  (adapter_w2): Linear(in_features=32, out_features=4096, bias=False)
  (act_fn): SiLU()
  (dropout): Dropout(p=0.1, inplace=False)
)
Initialized adapter matrices for language_model.model.layers.30.block_sparse_moe.shared_adapter.2.unit
language_model.model.layers.30.block_sparse_moe.shared_adapter.3.unit MixtralBlockParallelAdapterExpert(
  (adapter_w1): Linear(in_features=4096, out_features=32, bias=False)
  (adapter_w2): Linear(in_features=32, out_features=4096, bias=False)
  (act_fn): SiLU()
  (dropout): Dropout(p=0.1, inplace=False)
)
Initialized adapter matrices for language_model.model.layers.18.block_sparse_moe.shared_adapter.3.unit
language_model.model.layers.19.block_sparse_moe.shared_adapter.0.unit MixtralBlockParallelAdapterExpert(
  (adapter_w1): Linear(in_features=4096, out_features=32, bias=False)
  (adapter_w2): Linear(in_features=32, out_features=4096, bias=False)
  (act_fn): SiLU()
  (dropout): Dropout(p=0.1, inplace=False)
)
Initialized adapter matrices for language_model.model.layers.30.block_sparse_moe.shared_adapter.3.unit
language_model.model.layers.31.block_sparse_moe.shared_adapter.0.unit MixtralBlockParallelAdapterExpert(
  (adapter_w1): Linear(in_features=4096, out_features=32, bias=False)
  (adapter_w2): Linear(in_features=32, out_features=4096, bias=False)
  (act_fn): SiLU()
  (dropout): Dropout(p=0.1, inplace=False)
)
Initialized adapter matrices for language_model.model.layers.31.block_sparse_moe.shared_adapter.0.unit
language_model.model.layers.31.block_sparse_moe.shared_adapter.1.unit MixtralBlockParallelAdapterExpert(
  (adapter_w1): Linear(in_features=4096, out_features=32, bias=False)
  (adapter_w2): Linear(in_features=32, out_features=4096, bias=False)
  (act_fn): SiLU()
  (dropout): Dropout(p=0.1, inplace=False)
)
Initialized adapter matrices for language_model.model.layers.19.block_sparse_moe.shared_adapter.0.unit
language_model.model.layers.19.block_sparse_moe.shared_adapter.1.unit MixtralBlockParallelAdapterExpert(
  (adapter_w1): Linear(in_features=4096, out_features=32, bias=False)
  (adapter_w2): Linear(in_features=32, out_features=4096, bias=False)
  (act_fn): SiLU()
  (dropout): Dropout(p=0.1, inplace=False)
)
Initialized adapter matrices for language_model.model.layers.31.block_sparse_moe.shared_adapter.1.unit
language_model.model.layers.31.block_sparse_moe.shared_adapter.2.unit MixtralBlockParallelAdapterExpert(
  (adapter_w1): Linear(in_features=4096, out_features=32, bias=False)
  (adapter_w2): Linear(in_features=32, out_features=4096, bias=False)
  (act_fn): SiLU()
  (dropout): Dropout(p=0.1, inplace=False)
)
Initialized adapter matrices for language_model.model.layers.31.block_sparse_moe.shared_adapter.2.unit
language_model.model.layers.31.block_sparse_moe.shared_adapter.3.unit MixtralBlockParallelAdapterExpert(
  (adapter_w1): Linear(in_features=4096, out_features=32, bias=False)
  (adapter_w2): Linear(in_features=32, out_features=4096, bias=False)
  (act_fn): SiLU()
  (dropout): Dropout(p=0.1, inplace=False)
)
Initialized adapter matrices for language_model.model.layers.19.block_sparse_moe.shared_adapter.1.unit
language_model.model.layers.19.block_sparse_moe.shared_adapter.2.unit MixtralBlockParallelAdapterExpert(
  (adapter_w1): Linear(in_features=4096, out_features=32, bias=False)
  (adapter_w2): Linear(in_features=32, out_features=4096, bias=False)
  (act_fn): SiLU()
  (dropout): Dropout(p=0.1, inplace=False)
)
Initialized adapter matrices for language_model.model.layers.31.block_sparse_moe.shared_adapter.3.unit
Initialized adapter matrices for language_model.model.layers.19.block_sparse_moe.shared_adapter.2.unit
language_model.model.layers.19.block_sparse_moe.shared_adapter.3.unit MixtralBlockParallelAdapterExpert(
  (adapter_w1): Linear(in_features=4096, out_features=32, bias=False)
  (adapter_w2): Linear(in_features=32, out_features=4096, bias=False)
  (act_fn): SiLU()
  (dropout): Dropout(p=0.1, inplace=False)
)
Convert trainable params: 33554432 || all params: 47060850688 || trainable%: 0.07
Initialized adapter matrices for language_model.model.layers.19.block_sparse_moe.shared_adapter.3.unit
Print trainable params: 54534144 || all params: 47060850688 || trainable%: 0.12
language_model.model.layers.20.block_sparse_moe.shared_adapter.0.unit MixtralBlockParallelAdapterExpert(
  (adapter_w1): Linear(in_features=4096, out_features=32, bias=False)
  (adapter_w2): Linear(in_features=32, out_features=4096, bias=False)
  (act_fn): SiLU()
  (dropout): Dropout(p=0.1, inplace=False)
)
Initialized adapter matrices for language_model.model.layers.20.block_sparse_moe.shared_adapter.0.unit
language_model.model.layers.20.block_sparse_moe.shared_adapter.1.unit MixtralBlockParallelAdapterExpert(
  (adapter_w1): Linear(in_features=4096, out_features=32, bias=False)
  (adapter_w2): Linear(in_features=32, out_features=4096, bias=False)
  (act_fn): SiLU()
  (dropout): Dropout(p=0.1, inplace=False)
)
Initialized adapter matrices for language_model.model.layers.20.block_sparse_moe.shared_adapter.1.unit
language_model.model.layers.20.block_sparse_moe.shared_adapter.2.unit MixtralBlockParallelAdapterExpert(
  (adapter_w1): Linear(in_features=4096, out_features=32, bias=False)
  (adapter_w2): Linear(in_features=32, out_features=4096, bias=False)
  (act_fn): SiLU()
  (dropout): Dropout(p=0.1, inplace=False)
)
Initialized adapter matrices for language_model.model.layers.20.block_sparse_moe.shared_adapter.2.unit
language_model.model.layers.20.block_sparse_moe.shared_adapter.3.unit MixtralBlockParallelAdapterExpert(
  (adapter_w1): Linear(in_features=4096, out_features=32, bias=False)
  (adapter_w2): Linear(in_features=32, out_features=4096, bias=False)
  (act_fn): SiLU()
  (dropout): Dropout(p=0.1, inplace=False)
)
Initialized adapter matrices for language_model.model.layers.20.block_sparse_moe.shared_adapter.3.unit
language_model.model.layers.21.block_sparse_moe.shared_adapter.0.unit MixtralBlockParallelAdapterExpert(
  (adapter_w1): Linear(in_features=4096, out_features=32, bias=False)
  (adapter_w2): Linear(in_features=32, out_features=4096, bias=False)
  (act_fn): SiLU()
  (dropout): Dropout(p=0.1, inplace=False)
)
Initialized adapter matrices for language_model.model.layers.21.block_sparse_moe.shared_adapter.0.unit
language_model.model.layers.21.block_sparse_moe.shared_adapter.1.unit MixtralBlockParallelAdapterExpert(
  (adapter_w1): Linear(in_features=4096, out_features=32, bias=False)
  (adapter_w2): Linear(in_features=32, out_features=4096, bias=False)
  (act_fn): SiLU()
  (dropout): Dropout(p=0.1, inplace=False)
)
Initialized adapter matrices for language_model.model.layers.21.block_sparse_moe.shared_adapter.1.unit
language_model.model.layers.21.block_sparse_moe.shared_adapter.2.unit MixtralBlockParallelAdapterExpert(
  (adapter_w1): Linear(in_features=4096, out_features=32, bias=False)
  (adapter_w2): Linear(in_features=32, out_features=4096, bias=False)
  (act_fn): SiLU()
  (dropout): Dropout(p=0.1, inplace=False)
)
Initialized adapter matrices for language_model.model.layers.21.block_sparse_moe.shared_adapter.2.unit
language_model.model.layers.21.block_sparse_moe.shared_adapter.3.unit MixtralBlockParallelAdapterExpert(
  (adapter_w1): Linear(in_features=4096, out_features=32, bias=False)
  (adapter_w2): Linear(in_features=32, out_features=4096, bias=False)
  (act_fn): SiLU()
  (dropout): Dropout(p=0.1, inplace=False)
)
Initialized adapter matrices for language_model.model.layers.21.block_sparse_moe.shared_adapter.3.unit
language_model.model.layers.22.block_sparse_moe.shared_adapter.0.unit MixtralBlockParallelAdapterExpert(
  (adapter_w1): Linear(in_features=4096, out_features=32, bias=False)
  (adapter_w2): Linear(in_features=32, out_features=4096, bias=False)
  (act_fn): SiLU()
  (dropout): Dropout(p=0.1, inplace=False)
)
Initialized adapter matrices for language_model.model.layers.22.block_sparse_moe.shared_adapter.0.unit
language_model.model.layers.22.block_sparse_moe.shared_adapter.1.unit MixtralBlockParallelAdapterExpert(
  (adapter_w1): Linear(in_features=4096, out_features=32, bias=False)
  (adapter_w2): Linear(in_features=32, out_features=4096, bias=False)
  (act_fn): SiLU()
  (dropout): Dropout(p=0.1, inplace=False)
)
Initialized adapter matrices for language_model.model.layers.22.block_sparse_moe.shared_adapter.1.unit
language_model.model.layers.22.block_sparse_moe.shared_adapter.2.unit MixtralBlockParallelAdapterExpert(
  (adapter_w1): Linear(in_features=4096, out_features=32, bias=False)
  (adapter_w2): Linear(in_features=32, out_features=4096, bias=False)
  (act_fn): SiLU()
  (dropout): Dropout(p=0.1, inplace=False)
)
Initialized adapter matrices for language_model.model.layers.22.block_sparse_moe.shared_adapter.2.unit
language_model.model.layers.22.block_sparse_moe.shared_adapter.3.unit MixtralBlockParallelAdapterExpert(
  (adapter_w1): Linear(in_features=4096, out_features=32, bias=False)
  (adapter_w2): Linear(in_features=32, out_features=4096, bias=False)
  (act_fn): SiLU()
  (dropout): Dropout(p=0.1, inplace=False)
)
Initialized adapter matrices for language_model.model.layers.22.block_sparse_moe.shared_adapter.3.unit
language_model.model.layers.23.block_sparse_moe.shared_adapter.0.unit MixtralBlockParallelAdapterExpert(
  (adapter_w1): Linear(in_features=4096, out_features=32, bias=False)
  (adapter_w2): Linear(in_features=32, out_features=4096, bias=False)
  (act_fn): SiLU()
  (dropout): Dropout(p=0.1, inplace=False)
)
Initialized adapter matrices for language_model.model.layers.23.block_sparse_moe.shared_adapter.0.unit
language_model.model.layers.23.block_sparse_moe.shared_adapter.1.unit MixtralBlockParallelAdapterExpert(
  (adapter_w1): Linear(in_features=4096, out_features=32, bias=False)
  (adapter_w2): Linear(in_features=32, out_features=4096, bias=False)
  (act_fn): SiLU()
  (dropout): Dropout(p=0.1, inplace=False)
)
Initialized adapter matrices for language_model.model.layers.23.block_sparse_moe.shared_adapter.1.unit
language_model.model.layers.23.block_sparse_moe.shared_adapter.2.unit MixtralBlockParallelAdapterExpert(
  (adapter_w1): Linear(in_features=4096, out_features=32, bias=False)
  (adapter_w2): Linear(in_features=32, out_features=4096, bias=False)
  (act_fn): SiLU()
  (dropout): Dropout(p=0.1, inplace=False)
)
Initialized adapter matrices for language_model.model.layers.23.block_sparse_moe.shared_adapter.2.unit
language_model.model.layers.23.block_sparse_moe.shared_adapter.3.unit MixtralBlockParallelAdapterExpert(
  (adapter_w1): Linear(in_features=4096, out_features=32, bias=False)
  (adapter_w2): Linear(in_features=32, out_features=4096, bias=False)
  (act_fn): SiLU()
  (dropout): Dropout(p=0.1, inplace=False)
)
Initialized adapter matrices for language_model.model.layers.23.block_sparse_moe.shared_adapter.3.unit
language_model.model.layers.24.block_sparse_moe.shared_adapter.0.unit MixtralBlockParallelAdapterExpert(
  (adapter_w1): Linear(in_features=4096, out_features=32, bias=False)
  (adapter_w2): Linear(in_features=32, out_features=4096, bias=False)
  (act_fn): SiLU()
  (dropout): Dropout(p=0.1, inplace=False)
)
Initialized adapter matrices for language_model.model.layers.24.block_sparse_moe.shared_adapter.0.unit
language_model.model.layers.24.block_sparse_moe.shared_adapter.1.unit MixtralBlockParallelAdapterExpert(
  (adapter_w1): Linear(in_features=4096, out_features=32, bias=False)
  (adapter_w2): Linear(in_features=32, out_features=4096, bias=False)
  (act_fn): SiLU()
  (dropout): Dropout(p=0.1, inplace=False)
)
Initialized adapter matrices for language_model.model.layers.24.block_sparse_moe.shared_adapter.1.unit
language_model.model.layers.24.block_sparse_moe.shared_adapter.2.unit MixtralBlockParallelAdapterExpert(
  (adapter_w1): Linear(in_features=4096, out_features=32, bias=False)
  (adapter_w2): Linear(in_features=32, out_features=4096, bias=False)
  (act_fn): SiLU()
  (dropout): Dropout(p=0.1, inplace=False)
)
Initialized adapter matrices for language_model.model.layers.24.block_sparse_moe.shared_adapter.2.unit
language_model.model.layers.24.block_sparse_moe.shared_adapter.3.unit MixtralBlockParallelAdapterExpert(
  (adapter_w1): Linear(in_features=4096, out_features=32, bias=False)
  (adapter_w2): Linear(in_features=32, out_features=4096, bias=False)
  (act_fn): SiLU()
  (dropout): Dropout(p=0.1, inplace=False)
)
Initialized adapter matrices for language_model.model.layers.24.block_sparse_moe.shared_adapter.3.unit
language_model.model.layers.25.block_sparse_moe.shared_adapter.0.unit MixtralBlockParallelAdapterExpert(
  (adapter_w1): Linear(in_features=4096, out_features=32, bias=False)
  (adapter_w2): Linear(in_features=32, out_features=4096, bias=False)
  (act_fn): SiLU()
  (dropout): Dropout(p=0.1, inplace=False)
)
Initialized adapter matrices for language_model.model.layers.25.block_sparse_moe.shared_adapter.0.unit
language_model.model.layers.25.block_sparse_moe.shared_adapter.1.unit MixtralBlockParallelAdapterExpert(
  (adapter_w1): Linear(in_features=4096, out_features=32, bias=False)
  (adapter_w2): Linear(in_features=32, out_features=4096, bias=False)
  (act_fn): SiLU()
  (dropout): Dropout(p=0.1, inplace=False)
)
Initialized adapter matrices for language_model.model.layers.25.block_sparse_moe.shared_adapter.1.unit
language_model.model.layers.25.block_sparse_moe.shared_adapter.2.unit MixtralBlockParallelAdapterExpert(
  (adapter_w1): Linear(in_features=4096, out_features=32, bias=False)
  (adapter_w2): Linear(in_features=32, out_features=4096, bias=False)
  (act_fn): SiLU()
  (dropout): Dropout(p=0.1, inplace=False)
)
Initialized adapter matrices for language_model.model.layers.25.block_sparse_moe.shared_adapter.2.unit
language_model.model.layers.25.block_sparse_moe.shared_adapter.3.unit MixtralBlockParallelAdapterExpert(
  (adapter_w1): Linear(in_features=4096, out_features=32, bias=False)
  (adapter_w2): Linear(in_features=32, out_features=4096, bias=False)
  (act_fn): SiLU()
  (dropout): Dropout(p=0.1, inplace=False)
)
Initialized adapter matrices for language_model.model.layers.25.block_sparse_moe.shared_adapter.3.unit
language_model.model.layers.26.block_sparse_moe.shared_adapter.0.unit MixtralBlockParallelAdapterExpert(
  (adapter_w1): Linear(in_features=4096, out_features=32, bias=False)
  (adapter_w2): Linear(in_features=32, out_features=4096, bias=False)
  (act_fn): SiLU()
  (dropout): Dropout(p=0.1, inplace=False)
)
Initialized adapter matrices for language_model.model.layers.26.block_sparse_moe.shared_adapter.0.unit
language_model.model.layers.26.block_sparse_moe.shared_adapter.1.unit MixtralBlockParallelAdapterExpert(
  (adapter_w1): Linear(in_features=4096, out_features=32, bias=False)
  (adapter_w2): Linear(in_features=32, out_features=4096, bias=False)
  (act_fn): SiLU()
  (dropout): Dropout(p=0.1, inplace=False)
)
Initialized adapter matrices for language_model.model.layers.26.block_sparse_moe.shared_adapter.1.unit
language_model.model.layers.26.block_sparse_moe.shared_adapter.2.unit MixtralBlockParallelAdapterExpert(
  (adapter_w1): Linear(in_features=4096, out_features=32, bias=False)
  (adapter_w2): Linear(in_features=32, out_features=4096, bias=False)
  (act_fn): SiLU()
  (dropout): Dropout(p=0.1, inplace=False)
)
Initialized adapter matrices for language_model.model.layers.26.block_sparse_moe.shared_adapter.2.unit
language_model.model.layers.26.block_sparse_moe.shared_adapter.3.unit MixtralBlockParallelAdapterExpert(
  (adapter_w1): Linear(in_features=4096, out_features=32, bias=False)
  (adapter_w2): Linear(in_features=32, out_features=4096, bias=False)
  (act_fn): SiLU()
  (dropout): Dropout(p=0.1, inplace=False)
)
Initialized adapter matrices for language_model.model.layers.26.block_sparse_moe.shared_adapter.3.unit
language_model.model.layers.27.block_sparse_moe.shared_adapter.0.unit MixtralBlockParallelAdapterExpert(
  (adapter_w1): Linear(in_features=4096, out_features=32, bias=False)
  (adapter_w2): Linear(in_features=32, out_features=4096, bias=False)
  (act_fn): SiLU()
  (dropout): Dropout(p=0.1, inplace=False)
)
Initialized adapter matrices for language_model.model.layers.27.block_sparse_moe.shared_adapter.0.unit
language_model.model.layers.27.block_sparse_moe.shared_adapter.1.unit MixtralBlockParallelAdapterExpert(
  (adapter_w1): Linear(in_features=4096, out_features=32, bias=False)
  (adapter_w2): Linear(in_features=32, out_features=4096, bias=False)
  (act_fn): SiLU()
  (dropout): Dropout(p=0.1, inplace=False)
)
Initialized adapter matrices for language_model.model.layers.27.block_sparse_moe.shared_adapter.1.unit
language_model.model.layers.27.block_sparse_moe.shared_adapter.2.unit MixtralBlockParallelAdapterExpert(
  (adapter_w1): Linear(in_features=4096, out_features=32, bias=False)
  (adapter_w2): Linear(in_features=32, out_features=4096, bias=False)
  (act_fn): SiLU()
  (dropout): Dropout(p=0.1, inplace=False)
)
Initialized adapter matrices for language_model.model.layers.27.block_sparse_moe.shared_adapter.2.unit
language_model.model.layers.27.block_sparse_moe.shared_adapter.3.unit MixtralBlockParallelAdapterExpert(
  (adapter_w1): Linear(in_features=4096, out_features=32, bias=False)
  (adapter_w2): Linear(in_features=32, out_features=4096, bias=False)
  (act_fn): SiLU()
  (dropout): Dropout(p=0.1, inplace=False)
)
Initialized adapter matrices for language_model.model.layers.27.block_sparse_moe.shared_adapter.3.unit
language_model.model.layers.28.block_sparse_moe.shared_adapter.0.unit MixtralBlockParallelAdapterExpert(
  (adapter_w1): Linear(in_features=4096, out_features=32, bias=False)
  (adapter_w2): Linear(in_features=32, out_features=4096, bias=False)
  (act_fn): SiLU()
  (dropout): Dropout(p=0.1, inplace=False)
)
Initialized adapter matrices for language_model.model.layers.28.block_sparse_moe.shared_adapter.0.unit
language_model.model.layers.28.block_sparse_moe.shared_adapter.1.unit MixtralBlockParallelAdapterExpert(
  (adapter_w1): Linear(in_features=4096, out_features=32, bias=False)
  (adapter_w2): Linear(in_features=32, out_features=4096, bias=False)
  (act_fn): SiLU()
  (dropout): Dropout(p=0.1, inplace=False)
)
Initialized adapter matrices for language_model.model.layers.28.block_sparse_moe.shared_adapter.1.unit
language_model.model.layers.28.block_sparse_moe.shared_adapter.2.unit MixtralBlockParallelAdapterExpert(
  (adapter_w1): Linear(in_features=4096, out_features=32, bias=False)
  (adapter_w2): Linear(in_features=32, out_features=4096, bias=False)
  (act_fn): SiLU()
  (dropout): Dropout(p=0.1, inplace=False)
)
Initialized adapter matrices for language_model.model.layers.28.block_sparse_moe.shared_adapter.2.unit
language_model.model.layers.28.block_sparse_moe.shared_adapter.3.unit MixtralBlockParallelAdapterExpert(
  (adapter_w1): Linear(in_features=4096, out_features=32, bias=False)
  (adapter_w2): Linear(in_features=32, out_features=4096, bias=False)
  (act_fn): SiLU()
  (dropout): Dropout(p=0.1, inplace=False)
)
Initialized adapter matrices for language_model.model.layers.28.block_sparse_moe.shared_adapter.3.unit
language_model.model.layers.29.block_sparse_moe.shared_adapter.0.unit MixtralBlockParallelAdapterExpert(
  (adapter_w1): Linear(in_features=4096, out_features=32, bias=False)
  (adapter_w2): Linear(in_features=32, out_features=4096, bias=False)
  (act_fn): SiLU()
  (dropout): Dropout(p=0.1, inplace=False)
)
Initialized adapter matrices for language_model.model.layers.29.block_sparse_moe.shared_adapter.0.unit
language_model.model.layers.29.block_sparse_moe.shared_adapter.1.unit MixtralBlockParallelAdapterExpert(
  (adapter_w1): Linear(in_features=4096, out_features=32, bias=False)
  (adapter_w2): Linear(in_features=32, out_features=4096, bias=False)
  (act_fn): SiLU()
  (dropout): Dropout(p=0.1, inplace=False)
)
Initialized adapter matrices for language_model.model.layers.29.block_sparse_moe.shared_adapter.1.unit
language_model.model.layers.29.block_sparse_moe.shared_adapter.2.unit MixtralBlockParallelAdapterExpert(
  (adapter_w1): Linear(in_features=4096, out_features=32, bias=False)
  (adapter_w2): Linear(in_features=32, out_features=4096, bias=False)
  (act_fn): SiLU()
  (dropout): Dropout(p=0.1, inplace=False)
)
Initialized adapter matrices for language_model.model.layers.29.block_sparse_moe.shared_adapter.2.unit
language_model.model.layers.29.block_sparse_moe.shared_adapter.3.unit MixtralBlockParallelAdapterExpert(
  (adapter_w1): Linear(in_features=4096, out_features=32, bias=False)
  (adapter_w2): Linear(in_features=32, out_features=4096, bias=False)
  (act_fn): SiLU()
  (dropout): Dropout(p=0.1, inplace=False)
)
Initialized adapter matrices for language_model.model.layers.29.block_sparse_moe.shared_adapter.3.unit
language_model.model.layers.30.block_sparse_moe.shared_adapter.0.unit MixtralBlockParallelAdapterExpert(
  (adapter_w1): Linear(in_features=4096, out_features=32, bias=False)
  (adapter_w2): Linear(in_features=32, out_features=4096, bias=False)
  (act_fn): SiLU()
  (dropout): Dropout(p=0.1, inplace=False)
)
Initialized adapter matrices for language_model.model.layers.30.block_sparse_moe.shared_adapter.0.unit
language_model.model.layers.30.block_sparse_moe.shared_adapter.1.unit MixtralBlockParallelAdapterExpert(
  (adapter_w1): Linear(in_features=4096, out_features=32, bias=False)
  (adapter_w2): Linear(in_features=32, out_features=4096, bias=False)
  (act_fn): SiLU()
  (dropout): Dropout(p=0.1, inplace=False)
)
Initialized adapter matrices for language_model.model.layers.30.block_sparse_moe.shared_adapter.1.unit
language_model.model.layers.30.block_sparse_moe.shared_adapter.2.unit MixtralBlockParallelAdapterExpert(
  (adapter_w1): Linear(in_features=4096, out_features=32, bias=False)
  (adapter_w2): Linear(in_features=32, out_features=4096, bias=False)
  (act_fn): SiLU()
  (dropout): Dropout(p=0.1, inplace=False)
)
Initialized adapter matrices for language_model.model.layers.30.block_sparse_moe.shared_adapter.2.unit
language_model.model.layers.30.block_sparse_moe.shared_adapter.3.unit MixtralBlockParallelAdapterExpert(
  (adapter_w1): Linear(in_features=4096, out_features=32, bias=False)
  (adapter_w2): Linear(in_features=32, out_features=4096, bias=False)
  (act_fn): SiLU()
  (dropout): Dropout(p=0.1, inplace=False)
)
Initialized adapter matrices for language_model.model.layers.30.block_sparse_moe.shared_adapter.3.unit
language_model.model.layers.31.block_sparse_moe.shared_adapter.0.unit MixtralBlockParallelAdapterExpert(
  (adapter_w1): Linear(in_features=4096, out_features=32, bias=False)
  (adapter_w2): Linear(in_features=32, out_features=4096, bias=False)
  (act_fn): SiLU()
  (dropout): Dropout(p=0.1, inplace=False)
)
Initialized adapter matrices for language_model.model.layers.31.block_sparse_moe.shared_adapter.0.unit
language_model.model.layers.31.block_sparse_moe.shared_adapter.1.unit MixtralBlockParallelAdapterExpert(
  (adapter_w1): Linear(in_features=4096, out_features=32, bias=False)
  (adapter_w2): Linear(in_features=32, out_features=4096, bias=False)
  (act_fn): SiLU()
  (dropout): Dropout(p=0.1, inplace=False)
)
Initialized adapter matrices for language_model.model.layers.31.block_sparse_moe.shared_adapter.1.unit
language_model.model.layers.31.block_sparse_moe.shared_adapter.2.unit MixtralBlockParallelAdapterExpert(
  (adapter_w1): Linear(in_features=4096, out_features=32, bias=False)
  (adapter_w2): Linear(in_features=32, out_features=4096, bias=False)
  (act_fn): SiLU()
  (dropout): Dropout(p=0.1, inplace=False)
)
Initialized adapter matrices for language_model.model.layers.31.block_sparse_moe.shared_adapter.2.unit
language_model.model.layers.31.block_sparse_moe.shared_adapter.3.unit MixtralBlockParallelAdapterExpert(
  (adapter_w1): Linear(in_features=4096, out_features=32, bias=False)
  (adapter_w2): Linear(in_features=32, out_features=4096, bias=False)
  (act_fn): SiLU()
  (dropout): Dropout(p=0.1, inplace=False)
)
Initialized adapter matrices for language_model.model.layers.31.block_sparse_moe.shared_adapter.3.unit
Convert trainable params: 33554432 || all params: 47060850688 || trainable%: 0.07
Print trainable params: 54534144 || all params: 47060850688 || trainable%: 0.12
SEED_LAYERS=False BASE_SEED=1234 SEED_FN=None
…
